checkpoint_actor_1.pth (torch_old, 296400 bytes, 10 tensors)

fc1.weight f4 [256, 24]
00000000: f924 d4bc 96cf 6abd 033a 043c f5d6 19be
00000010: 26ae 453d 1f4b 30bc 043e bdbc 2488 96bd
00000020: 4ca1 983d 63d5 12be fd3d 5ebd 5142 9bbd
00000030: 7f04 d03d df41 37bd 2fae b43c ad88 77bd
00000040: b28b 3c3d c7b5 4ebe dadd 1bbd d95b 413d
00000050: f18b dfbc 4897 b83d 45e4 89bd b04e ed3c
00000060: add5 0f3d c4e9 8fbd 79d6 6cbd d085 9abd
00000070: c142 e53c 5c9f 68bd 8895 1d3d 7f2e acbc
00000080: e66a 2dbd c12c 19be 8094 efbb 5289 a1bc
00000090: 5276 8ebc 90ce 0dbe d77a 63bd aa27 b8bd
000000a0: f54e d8bc 71b6 a8be b926 93bb 7289 31be
000000b0: 57e9 273c b513 8abe 4a20 a3bd 2e2d 76be
000000c0: 9c08 02be 1135 043e bbb5 0e3c 1612 c73c
000000d0: f32d dabd 413e 3abc ea0b 76bb 8052 2bbd
000000e0: cc77 80bc 1194 f23c b5de 28bb c360 a33b
000000f0: 344d ad3c 095f 94bc 196e b33c 38af 42bd
00000100: 8773 21bd 7137 6f3d 5c34 9abc 003e 393c
00000110: 6e6b 483e 2483 153e cf97 713b ceb9 ef3d
00000120: 64e1 64bc 9463 82bd ed43 c53c 9a13 9cbc
00000130: 18a1 123d 5ca2 a6bd 128e 153c 2f51 91b8
00000140: d073 173d 2fce c8bb e91e 273d e1f6 393d
00000150: ff2c 923d 9a84 69bd 4f99 103d 914b 233d
00000160: 41b1 8abd e6dd a4bd 3fe7 3c3d b775 873d
00000170: 9c0c fc3d 1184 34bd 45ec 9cbc 9471 373d
00000180: 3267 1ebd 6ae0 2a3d e9cb 9a3d 8f10 553d
00000190: 66f9 2d3d 7e46 833c 4a9d f53c 81ef d4bc
000001a0: e66e 90bd 6ab5 82bb ff04 a5bc 377e 863d
000001b0: 9257 4ebc 35df a2bd 17c6 47bc 9517 af3d
000001c0: bc64 88bd 318a ab3d 1597 14bd a075 c53c
000001d0: 3e7c bcbd 0673 b9be 708e cebc ceb3 e23d
000001e0: 339f 1eba 02d1 b73c 1ade 1c3c 6081 ffbc
000001f0: 6463 eebb 384b 2b3a 16be adbb 8909 f0bd
00000200: 8ff5 f03d ee81 243c 3f94 babc 944c a4bd
00000210: edbb a2bd 0a44 87ba e4fe 3d3d 3619 05bd
00000220: 05c1 4a3d 7929 85bd d7a1 6a3d aa34 883d
00000230: 50a9 21be fbaf 3cbd 90fe 893d 9ef4 ee3c
00000240: 4aad 0bbd c0f5 dbbb f712 393d 8899 f03b
00000250: 5ce5 8abd af84 b8bc 94cb 7cb9 32b7 bbbc
00000260: 5002 d1bb 8c1d 05bd 512d 9a3c ff7b 55bd
00000270: dd56 cabc faae d4bd c9ce 0d3d d87e 8e3c
00000280: ed7f 78bc ea60 1dbe bc23 0d3d 2224 233c
00000290: 88d8 0bbe 40e2 cabe fafb 1dbd 41ca ca3c
000002a0: fcd6 d3bd b498 bd3d 759d 493b fa61 133e
000002b0: b32f 513e e311 be3d 0b80 54bc 6af4 1c3e
000002c0: 9f2d acbd 0da6 1d3e 2e46 65bc cbc5 ac3d
000002d0: 61b4 d03d 9dec a2bd 6286 e5bb 5be5 2f3e
000002e0: 6ae9 ed3a 4ac8 543e 5fc7 533d cefe 3dbd
000002f0: d775 f0bc dc86 07be 2d7a fbb9 bdeb adbd
00000300: f22d c7bc 5d4b 96bc 056f 323d 31b6 423d
00000310: 9d2b 79bc 8f0b a7bd 197f 1f3d 69c4 113d
00000320: c029 1b3d d833 c4bd d976 8fbd 2baa 163c
00000330: 2d95 873d 5ebd c7bd f20f 83bd d621 323d
00000340: 5367 b2bc b62d 22bd 674c 0bbd ba83 d43d
00000350: cfb9 0f3e 720c 14be 93c7 36bc 8273 d33d
00000360: 2eb5 4f3d 08d8 903d 4396 1a3d 47b5 673d
00000370: 5414 413d 179d 663d c5aa 27bc 4077 23bd
00000380: c59d 4bbd 0930 d63b 6aa0 08bc bf84 603b
00000390: 24fc 3d3e 662e dc3d 2843 bb3c 7e05 32bd
000003a0: 7dcc 01bd 3929 883b 8908 273d 20e2 4abe
000003b0: 90dd 9d3e 3860 9f3e e8c0 f7bb 6235 20be
000003c0: bd79 f3bc 9e8c 543c 833a d53d 83ff 6abd
000003d0: 52a3 3b3e e70f d8bb bb88 4e3c 59d2 9ebc
000003e0: 8ee3 29bc 8550 39bc b1c7 ae3c 60bc 8abd
000003f0: df66 3e3e d12e 61bc 3e5f 1f3d ce00 0dbd
-0.025896536 -0.057326876 0.008070472 -0.15023406 0.048261784 -0.010760098 -0.02310086 -0.073501855
0.0745264 -0.14339213 -0.054258335 -0.07581008 0.101571076 -0.044740554 0.022055713 -0.06043308
0.04603166 -0.2018653 -0.03805337 0.047206733 -0.027288409 0.090132296 -0.06732992 0.028968185
0.035115886 -0.07027009 -0.057821725 -0.07545054 0.027985932 -0.056792602 0.038472682 -0.021018265
-0.042338274 -0.14958479 -0.0073114038 -0.0197188 -0.017390404 -0.13848329 -0.05553707 -0.0899194
-0.026404837 -0.32951692 -0.0044907 -0.17337587 0.010248504 -0.2696816 -0.07965143 -0.24040672
-0.12698597 0.12910868 0.00871032 0.024300616 -0.10653295 -0.011367382 -0.0037543722 -0.041826725
-0.015682124 0.02961162 -0.002576751 0.0049859 0.021154977 -0.018111723 0.021903085 -0.047530383
-0.039416816 0.058402482 -0.018823795 0.011306286 0.19572231 0.14600807 0.0036864167 0.11705361
-0.013969753 -0.06366649 0.024080241 -0.019052316 0.035798162 -0.08136436 0.0091281105 -6.9292604e-05
0.03697568 -0.0061280946 0.040800963 0.045401458 0.071374886 -0.057011224 0.035302456 0.039866988
-0.0677209 -0.08050136 0.04611897 0.06614249 0.123070925 -0.04407126 -0.01915563 0.04478605
-0.038672633 0.041717924 0.07558424 0.052017745 0.042474173 0.016024824 0.029982228 -0.02599311
-0.07052402 -0.0039889114 -0.020143984 0.06567042 -0.012594121 -0.079527296 -0.012193224 0.0854942
-0.066598386 0.08375967 -0.036276896 0.02410394 -0.09203385 -0.36220568 -0.025214404 0.11069451
-0.0006050944 0.02243853 0.0095744375 -0.03118962 -0.007275032 0.0006534341 -0.005302201 -0.11720569
0.117655866 0.010040743 -0.022775767 -0.080224186 -0.07946 -0.001031996 0.04638566 -0.032494746
0.049500484 -0.06502051 0.05728325 0.0665067 -0.15787244 -0.046066266 0.06738007 0.029169377
-0.03410081 -0.0067126453 0.045184102 0.007342521 -0.06782028 -0.022524206 -0.00024108432 -0.022914503
-0.0063784495 -0.03249888 0.018820437 -0.052120205 -0.024699623 -0.10384937 0.034621034 0.017394468
-0.015167219 -0.15369001 0.034457907 0.009957345 -0.13656819 -0.3962574 -0.03857038 0.024754645
-0.103437394 0.092576414 0.0030764018 0.14392844 0.20428352 0.09280755 -0.012969981 0.15327612
-0.08407139 0.15395375 -0.013993783 0.084361635 0.101906545 -0.07955287 -0.007004545 0.17177336
0.0018151228 0.20779529 0.051703807 -0.04638558 -0.029353065 -0.13235039 -0.0004796548 -0.08492229
-0.0243139 -0.018346483 0.043562908 0.047537033 -0.015208152 -0.081565015 0.03893957 0.035587702
0.037881613 -0.09580201 -0.0700509 0.009195845 0.0662025 -0.09752916 -0.06399526 0.0434893
-0.021777784 -0.039594375 -0.03400841 0.10376687 0.14035724 -0.14457873 -0.011155981 0.10324766
0.050709896 0.07072455 0.037740957 0.056569364 0.047138527 0.056302156 -0.010233586 -0.039908648
-0.049711008 0.006536488 -0.008339027 0.003425881 0.18553215 0.10751037 0.022859171 -0.04346227
-0.031689156 0.0041553047 0.040779624 -0.19812822 0.308331 0.31128097 -0.007560838 -0.15645364
-0.029721135 0.012972979 0.10411551 -0.05737258 0.1832402 -0.0065936926 0.012605841 -0.019387411
-0.010369195 -0.011310701 0.021335455 -0.06774211 0.1859393 -0.013744072 0.03890919 -0.034424596

fc1.bias f4 [256]
00000000: 45d7 013e 3384 f1bd 3245 283e 0121 0dbe
00000010: 7631 583e f74d 1e3e 2ae6 973d 6edd 04be
00000020: 1b33 00be 835b 2b3e 2fe7 17be 699d cb3d
00000030: 02a1 87bd a4c5 abbd 12ad 6e3d deba 91bc
00000040: e423 f93d 1623 05be ad95 4ebe aac5 b7ba
00000050: bb55 ba3d 0a6d 09be 0a11 8bbd 47f2 efbd
00000060: 1427 ac3d 0c0d a23c 57ae 213e 7392 b13d
00000070: b600 09be fd60 863d bd5c 19be c892 eabd
00000080: 20da debd 5022 0a3e e310 fbbb 2798 ecbd
00000090: 75e1 33be 87d7 383e 1ef2 0d3e 7e25 26be
000000a0: 8cda 0d3e 93fe d43d c450 89bd 2dd2 b93d
000000b0: 3fc3 063d 4b52 26bd 86a7 26bd 3049 283e
000000c0: bf33 d03d 169d 173e 344e bc3d 115c 343e
000000d0: 25e1 84bc 1284 0bbd 9866 3f3e 0ec6 083e
000000e0: 20c9 6b3d 95da c6bd 6dbe 7ebd 2a04 633d
000000f0: 0359 bebd 5796 1f3e bad4 cbbd 544f c0bd
00000100: 8060 623d ee1e 3ebc b7ab 36be 0064 dc3d
00000110: 4294 65bd 0ebf 38bd 2d3a b9bd fa4b bdbd
00000120: ad6d bdbd 70ff a8bd 087b 04be 4b1a 96bc
00000130: 4450 b73d 68ad babd 25a9 43be 7a44 8c3d
00000140: 3f62 e2bd 0535 a73d 33bb 1d3d ef82 083d
00000150: 5297 4f3d b0c9 61bd 067c 21be d755 fe3d
00000160: 44a0 8c3d 5596 1ebc d72e 613e 2a30 393e
00000170: a8e4 25be d16e 143e dc49 203e 243c 933c
00000180: 5ace 15be 2fe6 7ebd 98a5 433d 0d77 2fbd
00000190: eee6 cb3d 0f85 dd3d 4009 38be 44cb 7a3c
000001a0: 6f44 6e3d 0bdc 2e3e b3f8 793d e0d9 223e
000001b0: 1464 193d 95f1 bdbd a37f 13be 2bd4 99bd
000001c0: 5cf5 d03c b78a cbbd d80b 45be 94b9 5c3e
000001d0: 3192 123d b166 943d 4529 03bd f684 583d
000001e0: 76e2 91bd fcfa ed3d 066b 59bd 81a7 513e
000001f0: 42b2 c33c 9556 253c 4abe 313e 5b0d ac3d
00000200: b699 b23d 0107 b43c 7c19 583e bdc3 3bbe
00000210: 2d1c 533e dc5c b7bd c036 513e 22c5 5c3d
00000220: bc65 0dbe 5dd5 10be a486 8c3d 185a d33d
00000230: 3292 08be 554d 053e 00b9 a9bd 6aaf 863e
00000240: 1939 943c c815 3cbe 5748 383d 8b55 aebd
00000250: 3044 073c 26b6 8ebd cbc7 8f3e f40f 05be
00000260: b782 3f3e a3ce 20be ce8a 053e 6373 14be
00000270: abb4 a03c b2e6 1abd b6f4 39be ebc6 313e
00000280: ca12 a83c 55dc 073e 2710 8abd b891 dabb
00000290: a0ab fbbd b4b3 25be 255f 943d 2f20 b03d
000002a0: d3cf d4bc b3f2 09be d111 d13d 5df4 383e
000002b0: b74e 3a3d 11f1 27be b5d3 023e d8e5 273e
000002c0: 9b83 8ebc f1dc f8bc e047 28bd 25c7 b93d
000002d0: 3d09 523e d95e 1f3e 6371 b53d 72df 15be
000002e0: 0592 473e 751b ec3d 9d5c 4d3e 02c4 b4bd
000002f0: 139d b03d 262c 1f3e 5f85 da3d 1460 b03c
00000300: 455f 513b cd1f 83bd 471c 013e b55b dbbd
00000310: 37df 21be ce51 27bd 6af8 1abe e1ba cfbd
00000320: 90b0 5a3e aa8f cabd 5a33 d53d c06c 18be
00000330: b6ad 46be 5824 1d3d ede0 cb3d f2f1 203d
00000340: ddac 123e 6c60 c7bc 8225 07be d3ad 113e
00000350: 1645 8fbc 30b3 f3bd 43a2 9e3c d4d2 c63d
00000360: 7d26 9dbc 7329 c4bc 2a5c e33d b5a8 e83d
00000370: 70a1 153e 1607 24bd 69a5 d13d 00bf 493d
00000380: e107 35bc 08bb 8a3d 7275 4b3d fdfa 0cbe
00000390: 8082 0ebe 1573 463e 9497 d2bd d503 573e
000003a0: 3072 633d d25b f43d e98e 41bb f75d 9ebd
000003b0: 1751 6dbd 9f6b 57be 861c 73bd cfbe 753e
000003c0: 9db9 b73c 1304 f73b 2813 aebd db6c 093d
000003d0: c9d8 d7bd a1ee 223e e1d9 093e 576f 093e
000003e0: 0fe5 663d d35d 8f3b 1795 8cbd ff73 59bd
000003f0: 546e c93d 0dc4 91bb 48f0 993d 6d38 313d
0.12679775 -0.11792793 0.16432646 -0.13782121 0.21112618 0.15459429 0.07416947 -0.12975094
-0.12519495 0.16734128 -0.14834283 0.09942133 -0.06622507 -0.08387306 0.05827052 -0.0177893
0.12165049 -0.13001665 -0.20174284 -0.00140207 0.09098383 -0.13420501 -0.06790359 -0.117161326
0.08405891 0.019781612 0.15789162 0.08670511 -0.13379177 0.06561468 -0.14976783 -0.114537776
-0.10881448 0.13489652 -0.007661925 -0.11552458 -0.17566474 0.18050967 0.13861892 -0.1622524
0.138529 0.10400119 -0.06704858 0.09073291 0.032901045 -0.040605824 -0.040687107 0.16434169
0.1016612 0.14806017 0.091946036 0.17613246 -0.016220639 -0.0340615 0.1869148 0.13356802
0.057564855 -0.0970966 -0.062193323 0.055423893 -0.092943214 0.15584694 -0.09952684 -0.09390131
0.05526781 -0.011604054 -0.17838942 0.10761261 -0.056049593 -0.04510408 -0.09044299 -0.09243007
-0.092494346 -0.08251846 -0.12937558 -0.018323084 0.08950856 -0.09115106 -0.19107492 0.06848998
-0.11053895 0.081644095 0.038508605 0.033327993 0.05068142 -0.055123985 -0.15769967 0.124187164
0.06866506 -0.009679397 0.21990524 0.1808478 -0.16200507 0.14495398 0.15653175 0.017973013
-0.14629498 -0.06223124 0.047765344 -0.042838145 0.09956156 0.108163945 -0.17972279 0.015307251
0.058170732 0.17076127 0.061028194 0.15903425 0.037448958 -0.09274594 -0.14404158 -0.07511171
0.025507621 -0.09938567 -0.192428 0.21555167 0.03578395 0.07246149 -0.03202178 0.052861176
-0.07123272 0.11620137 -0.05308058 0.20474054 0.02388871 0.010091444 0.17357746 0.08400985
0.08720724 0.021975996 0.21103472 -0.18336387 0.20616217 -0.089532584 0.20431042 0.053898938
-0.1380834 -0.14143892 0.06861618 0.103199184 -0.13337019 0.13017781 -0.08287239 0.26305705
0.018093633 -0.18367684 0.044990864 -0.0851241 0.008256003 -0.06968336 0.28082117 -0.12994367
0.18702208 -0.15703826 0.13041231 -0.14497142 0.0196174 -0.037817664 -0.18159756 0.17361037
0.020516772 0.13267644 -0.06741362 -0.006670203 -0.12288594 -0.16181833 0.0724471 0.085998885
-0.025978005 -0.13471489 0.10208476 0.18061967 0.045485225 -0.16400553 0.12776072 0.16396272
-0.017396739 -0.03037879 -0.04108417 0.09071187 0.20511337 0.15563525 0.088595174 -0.14636019
0.19489296 0.115286745 0.2005486 -0.08826448 0.086237095 0.15544185 0.1066997 0.021530189
0.0031947654 -0.0640255 0.12608443 -0.10710851 -0.15807806 -0.0408495 -0.15133825 -0.10143066
0.21356416 -0.09890683 0.10410185 -0.14885235 -0.19402203 0.03836474 0.099550106 0.039293237
0.14323755 -0.02433797 -0.13197902 0.14226465 -0.017488997 -0.11899412 0.019364482 0.09708181
-0.019183392 -0.023945546 0.11101563 0.11360303 0.14612365 -0.04004582 0.102366276 0.049254417
-0.011049242 0.06773955 0.04967255 -0.1376762 -0.1391697 0.19379838 -0.102828175 0.20997556
0.05552882 0.11931576 -0.0029534644 -0.07732766 -0.05793866 -0.21037148 -0.059353374 0.23998569
0.022427374 0.0075383275 -0.084997475 0.03355108 -0.10539395 0.15911342 0.1346202 0.13421379
0.05637079 0.0043751984 -0.06864374 -0.053089138 0.098354965 -0.00444842 0.07516533 0.043266702

fc2.weight f4 [256, 256]
00000000: fe55 6d3d 54eb e53d 748d ec3c 32d2 c0bb
00000010: b91f 5b3d fce8 e5bb b3d2 4e3d db02 893d
00000020: a838 833c 5579 11be 7b47 613b 2540 1cbe
00000030: ec30 87bd 4ab9 f03c 5b4e b23c 644a b03d
00000040: 7764 36be 9d39 d6bd 9378 653d 0fe6 2e3e
00000050: eec1 3f3d c000 963a 1d8d bfbc 3896 39bd
00000060: d816 993c 9d43 423d a853 82bc fc6f cc3d
00000070: 6006 3e3d ba29 48bd ef94 62bc 4909 aabc
00000080: 0a8e 5b3c 3751 1a3d 81ff ab3d bbf3 bb3d
00000090: a06d e53c a894 413d 2690 91bc afc2 933d
000000a0: 6d9d b43d 3617 ccbc b45b f13c c4d1 c73d
000000b0: 0007 53bd f660 c0bd 9429 9a3c 6f4b 5c3d
000000c0: 1b09 4c3d 09c1 8e3b d039 9dbd 72b9 9ebc
000000d0: 6181 e33c 8dd7 e9bc 3cbe 04bb 81d3 0d3d
000000e0: 22bf 9d3b 3381 343d 8f86 d73c 7b30 3a3d
000000f0: 2d1e f9ba 65f6 debd b163 6abd 9fb9 06bd
00000100: 1a94 9d3d f11a 38bd 976c cc3d db1e 0fbc
00000110: c56e 34bd 8ee4 2bbe 7c55 db3c 6b90 813d
00000120: f994 c13c ca39 13bd 71e0 87bd 66b5 2f3d
00000130: 4e22 abbc 1311 b03c 72d7 193d e624 d03c
00000140: c50d bcbd ff7c 1cbc 784e 42bd f3cb cebc
00000150: e536 ba3c 0467 393d 22b8 8539 1ed8 be3c
00000160: b51c bcbd b526 103d 5151 6a3d ee29 e93d
00000170: 23c0 73bc 2901 13bb a82d 143d 4f2c 1f3d
00000180: e3eb 9d3c 3c56 1f3d 152d abbd f3d4 0cbb
00000190: 50ed eebd e663 963d abdb 51bd 227d 773c
000001a0: 9705 02bd fffc b83d db1f d33d 6879 38bd
000001b0: c7af db3b dca3 98bd 5007 503d 0fd0 523d
000001c0: 5755 febc 23de 203c 443e c33c 589e 1e3d
000001d0: 1840 203d f72c 593d fbea 403d a9ac 2bbe
000001e0: 574f 093d d5e2 b33d d196 273c 5859 b3bd
000001f0: 8060 84bd 5e3e 603d eb48 543d 2a47 e9bb
00000200: 45c3 0f3d 6df4 923d 4e22 23bc 2188 38bd
00000210: ffdd 8a3d 47c0 82bd 4718 08bd c56a 79bb
00000220: 2a00 9ebc 2be4 aa3d 3f5a ef3d ddc8 c4bd
00000230: 3269 4d3d 6a6d 93bd 4c2d 833a 66e1 f53d
00000240: 808a 923d 2a16 f2bc e95f bc3d ce9e 523c
00000250: 8740 f33c 09db 133d 0db4 bd3d 297c 583d
00000260: 93c8 dcbd 4487 6f3d 702a 28bd e5a2 c9bc
00000270: a981 0b3a e3ee 9b3d 14a4 ae3d 9740 663c
00000280: 7960 dc3d b6e6 80bc c4a4 32be ae15 933c
00000290: 2bcb be3c c230 463c e75d 853d 90b1 bbbc
000002a0: cce1 19bd d40a e7bc f8d5 a63d 83d5 1e3d
000002b0: 2a73 25be 4807 c6bc 8f47 d63c d2fb 4cbd
000002c0: df28 853d fa97 51bb ead2 ae3a 70e8 973c
000002d0: 0d68 b2bd 7999 183e 5178 d4bd 47ea 243c
000002e0: fdd3 a9bb 293b 833b 3bb4 693a 0220 973d
000002f0: eb1c 983d eb19 823d 7672 9cbe cc18 c63c
00000300: 06ef 1bbd d5ac cf3c a7f1 1ebc c4dd debd
00000310: 818f b4bc 356d 7ebd 86ef e2bc 13cc 703d
00000320: 3953 9e3d 5d65 2cbd 1a33 27bd c519 4cbe
00000330: bc94 3ebd 57d7 afbc e0e3 fc3c 61e3 20be
00000340: 819e 85bc 8334 02be ce5e 21bd 3a0a c9bd
00000350: b257 813d 10ea 173d df05 a23d 1118 6bbb
00000360: 2ae3 b5bd 25e6 e2bd 6878 c43c 3185 bfbc
00000370: 12b1 91bd 4818 24be 53a9 4dbd 7b14 cebb
00000380: caf0 643d f55c 4dbd 995a a33d b0e6 983d
00000390: 10d0 b73c 31cd 673c 1a00 a03d 4e07 f0bc
000003a0: 9957 bdbd aed0 8f3d 041c c9bb 63c8 1b3d
000003b0: a772 47bd 2ed6 cc3c a455 923c 78c4 6ebd
000003c0: 3765 ec3d f3e9 a7bc 6aae 133b 2565 1f3d
000003d0: f642 16bd 5bd9 b3bd fe5a 503d ba32 963d
000003e0: 3c4b 99bc 495c 9abd ba5d 513d 65c6 a8bc
000003f0: 01b7 fabd 89a7 243d f941 313d 8ac3 a63c
0.057943337 0.11226526 0.028876044 -0.0058844322 0.05349705 -0.0070162993 0.050493907 0.06689998
0.016018227 -0.14206441 0.003437488 -0.15258844 -0.06601128 0.029385228 0.021765878 0.08607939
-0.17811762 -0.104602076 0.05602319 0.17079948 0.046815805 0.0011444315 -0.023382718 -0.045309275
0.01868765 0.047427762 -0.015909031 0.09982297 0.0463928 -0.04886792 -0.013829454 -0.02075638
0.013400564 0.03767511 0.08398343 0.09177347 0.028006375 0.04726091 -0.01776893 0.07214867
0.08819089 -0.024913412 0.029462673 0.097568065 -0.051520348 -0.09393494 0.018818654 0.053782877
0.04981337 0.0043565077 -0.076770425 -0.019375537 0.027771654 -0.028545165 -0.002025499 0.034625534
0.0048140446 0.044068526 0.02630928 0.04545639 -0.0019006185 -0.1088684 -0.05722398 -0.032891866
0.07694264 -0.04494757 0.09981649 -0.008735384 -0.04405095 -0.16786405 0.02677416 0.06326374
0.023630606 -0.035943784 -0.06634606 0.042897604 -0.020890381 0.021492517 0.03755898 0.02540822
-0.09182314 -0.009551286 -0.047438115 -0.025243735 0.022731254 0.04526426 0.00025504926 0.023296412
-0.09185163 0.035193164 0.057206456 0.113849506 -0.014877352 -0.0022431111 0.036176354 0.038860615
0.019277519 0.0389006 -0.08358208 -0.0021489232 -0.116663575 0.07343273 -0.051234882 0.015105518
-0.031743612 0.0903263 0.1030881 -0.045037657 0.006704304 -0.07453129 0.050788224 0.05146795
-0.031046553 0.0098185865 0.023833402 0.038725227 0.039123625 0.053021397 0.047099095 -0.16765083
0.03352293 0.08783499 0.0102288285 -0.08757275 -0.064637184 0.054746978 0.051827352 -0.007119079
0.035098333 0.07175527 -0.009956909 -0.045051698 0.06780624 -0.0638433 -0.033226278 -0.0038058024
-0.019287188 0.08344301 0.11687135 -0.09608624 0.05014915 -0.071986035 0.0010008006 0.12005882
0.07155323 -0.029551584 0.09197981 0.012855245 0.029693855 0.03609756 0.092628576 0.052852783
-0.10780444 0.05847861 -0.041056097 -0.024613807 0.000532175 0.076139234 0.08527389 0.014053485
0.10760588 -0.015735012 -0.17445666 0.017954674 0.023290237 0.012096586 0.06512051 -0.022911817
-0.037568852 -0.028203405 0.0814628 0.03877784 -0.16157213 -0.024173394 0.026157169 -0.050044842
0.06501936 -0.0031981454 0.0013338004 0.018543452 -0.08711252 0.14902295 -0.10374511 0.010065622
-0.0051827417 0.004004855 0.0008915101 0.07379152 0.07427391 0.063526 -0.30556077 0.024181746
-0.038069747 0.025350967 -0.009701169 -0.10882142 -0.022041084 -0.062115867 -0.027702104 0.05878837
0.07730717 -0.042088855 -0.04082022 -0.19931705 -0.046528563 -0.021464987 0.030870378 -0.15711738
-0.016310932 -0.12715344 -0.039397053 -0.09816404 0.06315555 0.037088454 0.07911276 -0.00358725
-0.08881219 -0.11079053 0.023983195 -0.02337894 -0.071138516 -0.16024888 -0.05021031 -0.0062890626
0.055893697 -0.05013748 0.079762645 0.07465875 0.02243808 0.014148043 0.07812519 -0.029300358
-0.092452236 0.07022224 -0.006137373 0.0380329 -0.048693325 0.025004473 0.017863102 -0.058292836
0.11542743 -0.020497298 0.0022534379 0.03891482 -0.036684953 -0.08781692 0.050868027 0.07333894
-0.018712632 -0.07537133 0.051114775 -0.020602414 -0.122419365 0.040198836 0.043275807 0.020356912

fc2.bias f4 [256]
00000000: 06bb 763d 4e21 073c 6ebb fa3c 842e 28bd
00000010: b5d9 483d cdeb 13bd d8f0 6cbd 58c9 573d
00000020: dbc5 ba3c 7c09 223d d7f7 e4bc 5f2c bc3c
00000030: 6199 483d b665 fd3c 36ff 67bb d55a 883d
00000040: 8956 763c f283 04bb bf8c 043d 880b 3cba
00000050: 1480 5bbd d4f7 903d ebba 6b3d 338e 3cbd
00000060: 1dad abbc a10f 49bd 94bb c1bb 1e4d d8bc
00000070: 6b45 6a3c e784 a03c c66f 673b 2804 113d
00000080: 6a56 a3bc b234 923c 88a0 373c ac9e 853d
00000090: 3329 273d 469e 1dbd 7953 1b3d dec1 81bc
000000a0: 1c13 703d 7a4d 19bd cbb9 58bd c3c6 8abd
000000b0: 3618 643d a4ac 1a3c 0ea0 72bc 9357 1cbd
000000c0: 6a38 3fbc aa4f 5a3d 1d46 95bc 95b0 0f3c
000000d0: 1008 853c c324 82bd abf7 7fbd c138 663d
000000e0: dc21 5fbd f253 3e3d a9c1 40bd 6313 cb3c
000000f0: 47da c7ba d457 b5bc 9810 d3bd 69aa 103c
00000100: 7f70 703c 12a3 0ebd 606f 49bc ca2c 95bc
00000110: 5666 8b3a e23b c93c a17e 0c3d a5b4 fc3c
00000120: 97f4 a93c 4d0d 983d f66b 80bd fb00 3ebd
00000130: 2732 fcbb 3e16 833d 5282 5f3c 975c 633d
00000140: f5bf 00bc 3a51 47bb 0f56 163d 0b1e 0fbd
00000150: 6754 b93d 535a 553c 8b96 0b3c 80dc b73b
00000160: 2c66 12bd 0c03 f9bc 5481 b63c de02 0cbd
00000170: 8036 ee3c 6366 1abd 0f7d 833c 2d8e 3e3d
00000180: d498 34bc abb8 28bd 1485 a63d 948e 4f3d
00000190: f216 3ebd d5e0 a4bd d1da 473d 3074 1c3b
000001a0: da6c a3bc b442 a33c 53d9 aa3c f80d 5a3d
000001b0: 9fab 7a3c 56a1 00bd 0749 e1bc c6e4 893d
000001c0: bdab 353d 262b 513d 047d 35bd 9d8e fa3c
000001d0: 874f 01bd 0fa0 c83c 9edf b13c 6714 633d
000001e0: b148 8d3b ecb5 bb3d b5b3 65bd 35b3 9e3d
000001f0: 6a43 01bd 566c 923d 8584 b3ba 062a 21bd
00000200: 0b72 12bd 0cd6 213d 1b91 51bd a39b 7e3c
00000210: 0093 11bc 47e5 903d f77c e93c 28ed 27bd
00000220: 8fda 1eba 968d 7f3c 8cb0 c7bc 04bc bc3d
00000230: ee84 b33c c0ea 2f3d 171c 9cbd 1029 8ebc
00000240: cd5d 063d 29fa 09bd 80f7 98bc 455b ff3b
00000250: 2837 a33c 2c69 89bb b360 5a3c 36c9 4f3d
00000260: 8769 533d 07b4 babc 619a a03c 84f8 8a3d
00000270: 4842 123d 61a3 713c a399 df3d b0c9 18bd
00000280: 0078 9a3d 43e7 523c 59d0 4fbc b160 4f3d
00000290: cf66 0b3d 1998 bebc 85c1 cc3d c21c 813d
000002a0: ad98 663c e4d1 34bd c272 8cbc d211 40bd
000002b0: d39a e53c 82ba 103d a6da 3abd 9449 98bd
000002c0: d02b 63bd 08d4 043d 6662 59bd d964 a5bd
000002d0: 1545 4f3d 168f 9a3b 72f2 213d 5e9d 393d
000002e0: 1da7 a13d 1a75 79bc 6360 9a3c 663c 3bbc
000002f0: 4844 31bd 1e4d 15bd aab3 893d 698c 99bc
00000300: 4e3b 5a3c 3eb4 35bb 82a6 9bbd a80b 24bd
00000310: 0b52 6cbc c748 6abd d22c 933c cc66 053d
00000320: 4463 5d3d a567 fb3c e40c 6cba 8771 37bd
00000330: d16a 48bd 3d3b d03c 6eb3 803c 3f6e 423d
00000340: 785c 53ba fa28 973b ddf7 743c b009 9fbd
00000350: aec5 6bbb df99 00bd 6cfe d43b 05e8 88bd
00000360: 4f6e 9abd 0cb4 e9bc d56c 9dbc cffb 433d
00000370: 8b63 9d3b bf20 7f3d d890 ad3c 7444 b5bc
00000380: 7ace aa3c 1b45 0b3d 57d2 9d3b 0223 873d
00000390: 46c9 bcbc b3d2 30bd 9864 42bd 8b76 97bc
000003a0: 0e5c 483d b6da 89bc d4be a6bd f8d6 04bd
000003b0: d714 fb3c b378 e13c c0bf 3d3d 4383 f6bc
000003c0: 2672 a4bc dfd7 343c d7ff ba3b 9898 22bb
000003d0: 3dd7 1f3d 7095 873d 8d65 d63c 9303 0dbd
000003e0: 0f82 2abd 7de1 a0bb c26f 15bd 6358 a4bd
000003f0: ace4 f33c 6c7d a53d 43f2 873d aea4 69bb
0.060236953 0.008247687 0.030606952 -0.041059986 0.049035747 -0.03611355 -0.057846874 0.05268225
0.022799423 0.039559826 -0.02795021 0.022970377 0.0489744 0.030932289 -0.003539992 0.0665795
0.01503528 -0.0020220247 0.03236079 -0.0007173349 -0.05358894 0.070785195 0.057551306 -0.04603405
-0.02095657 -0.04908717 -0.0059122536 -0.02640396 0.014298777 0.019594623 0.0035314425 0.035404354
-0.019938666 0.017847393 0.011207707 0.06524405 0.040810775 -0.03848102 0.037921403 -0.015839513
0.058611974 -0.037427403 -0.05291156 -0.06776192 0.05568715 0.009440575 -0.014808668 -0.038169455
-0.011671165 0.05329863 -0.01822191 0.008770128 0.016239196 -0.06354668 -0.062492054 0.05620647
-0.05447565 0.046466775 -0.04705969 0.024789518 -0.0015247547 -0.022136606 -0.103058994 0.008829691
0.014675259 -0.034823485 -0.01229462 -0.018209834 0.0010635357 0.024564687 0.03430045 0.030847857
0.020746512 0.07424412 -0.06270592 -0.046387654 -0.0076964083 0.06400727 0.013641911 0.055508222
-0.007858266 -0.0030413405 0.036703166 -0.03494076 0.090493016 0.013022023 0.008519779 0.0056110024
-0.03574197 -0.03039696 0.022278465 -0.034182422 0.029078722 -0.0376953 0.016050844 0.04652231
-0.011022765 -0.041191738 0.081308514 0.050673082 -0.0464086 -0.08050696 0.048792664 0.0023872964
-0.019949365 0.019929267 0.020855581 0.053235978 0.015299707 -0.031403862 -0.027500642 0.06733088
0.044353236 0.05106654 -0.044308677 0.030585581 -0.031569984 0.024490384 0.021713074 0.05543938
0.004311644 0.09165558 -0.056079585 0.07749025 -0.03155843 0.0714957 -0.001369611 -0.039346717
-0.03575329 0.03951077 -0.051163774 0.015540036 -0.008885145 0.07074981 0.02850197 -0.040997654
-0.00060597894 0.015597722 -0.024376176 0.09215549 0.021913972 0.042948484 -0.07622545 -0.017353565
0.0328043 -0.033685837 -0.018672705 0.0077928626 0.019923761 -0.0041934457 0.013328719 0.050729
0.05161431 -0.022790922 0.019604864 0.06785682 0.035707742 0.014748425 0.10917976 -0.03730172
0.075424194 0.01287252 -0.012683951 0.05062932 0.034033593 -0.023265885 0.099978484 0.06304313
0.014074487 -0.04414548 -0.017144565 -0.046891995 0.028027928 0.035334118 -0.045618676 -0.07435909
-0.055461705 0.03242877 -0.053072356 -0.08075876 0.05060299 0.004716764 0.039537854 0.045316093
0.078932025 -0.015225673 0.018844789 -0.011427974 -0.04327801 -0.036450498 0.06723721 -0.01874371
0.013319803 -0.002772584 -0.07600118 -0.04005018 -0.014423857 -0.057198312 0.017965708 0.032568738
0.054049745 0.03068907 -0.00090046064 -0.044786002 -0.048929993 0.025418872 0.015710559 0.04746842
-0.000806279 0.004613039 0.014951673 -0.077655196 -0.003597598 -0.031396743 0.006500056 -0.06684879
-0.07540571 -0.028528236 -0.019216934 0.047847565 0.004803126 0.06228709 0.021187231 -0.022127368
0.020850409 0.03400145 0.004816334 0.06598474 -0.023045193 -0.04316969 -0.047459215 -0.018489143
0.048915915 -0.016827922 -0.08141866 -0.032431573 0.030649586 0.027523374 0.046325445 -0.030091887
-0.020073961 0.011037796 0.005706768 -0.0024810191 0.039023627 0.066203 0.02617147 -0.034427237
-0.04162794 -0.004909693 -0.036483534 -0.08024671 0.029772125 0.08080563 0.06638005 -0.0035651135

fc3.weight f4 [2, 256]
00000000: 7fc7 1d3d c1ed cb3c 70e2 2b3c d322 8dbc
00000010: e1e2 2fbd 7ae3 1cbe f559 923b 621a c2bc
00000020: 8c41 893d d7e7 bc3d 3ae1 193d 41da 393b
00000030: a1c0 6abb f937 68bd ba40 223e 7f2c b13d
00000040: 99b6 933d b63f 8b3a c540 403e 7de7 c2bd
00000050: 23fa 77bd c394 31bd f56d 013d 2c79 1abe
00000060: 5f69 063d 6bdb e63d c579 47bd bc34 353d
00000070: 5017 ce3b 6a3e a93c de95 c83c 10e2 2fbd
00000080: a350 c83c 8f4e 76bd 3341 a3bd a3eb 193d
00000090: 7c2d 0b3e 6e20 5abd 3028 263c 88dc 4b3e
000000a0: 349c 843d 4d03 9dbc d009 cb3e 2356 26be
000000b0: 88d6 86bd 326e 653e 8481 96bc 4812 343c
000000c0: 6787 89bc 4497 a1bc 0039 84bc 70a1 d93d
000000d0: 4fcd 7abb 53bc 973e 0dbc 443c 9800 00be
000000e0: c0bc 07bc a6e2 a13b cb8e 353e 688c 28be
000000f0: 3d9c 523e ecc5 92bd 8138 133d 41d5 663b
00000100: d899 323e ced0 bf3c a3ae ed3b a087 b5bd
00000110: 966c b33d 1eab d1bc 369c 80bc 966b 3c3e
00000120: 7cd1 22bd 4794 8ebc bdac d73e ccc4 b2bc
00000130: 7e39 b2bd 7e0c ffbc 92b7 f33d 14e8 d7bc
00000140: f1d6 9a3d 463f 743e 02a8 9abd 3ea2 afbe
00000150: 3a82 4cbd 08fa f3b9 01a8 b7bc 7eca 0f3b
00000160: 94fb 50bc 1033 dfbc 7d7e 063d 0077 43bc
00000170: 2382 9dbc f4c0 c03d f8ab f73a 139a 96ba
00000180: ca08 613e 5292 20be 341d a9bb 7717 b23d
00000190: 9d52 04bd f9c8 2ebc 1f1b 18bd e9a8 2ebc
000001a0: 9813 8f3d 6917 ef3c e63d dabc 21e8 9abc
000001b0: 5501 173b 86ee dfbc 2802 663e 460d 9b3c
000001c0: 73f1 e5bc 8a38 c03b 2c0f 01bd e4de 523d
000001d0: 4e65 80bd 2e91 8f3e f6ed 3bbd 81dc 243b
000001e0: 5637 bc3d ed9a 00bd 0916 4ebd 690b e83b
000001f0: 9efe a4bd 68fa bdba 337e 49bc 9ea7 0c3d
00000200: 3fa0 753d 2484 413e 4f34 393d 321b b0bc
00000210: 1832 01bc ed2d 413b 29c3 b03d 5f6c 333c
00000220: 0ff9 c9bc 6717 e23c f53c fe3c 3eb8 13bd
00000230: 2709 68bd 1e5c e9bc f358 ca3c 61fd 3dbc
00000240: 3c00 863b e4fa 08be 76a3 1c3b 7933 c8bc
00000250: 3f70 a43c 78f8 5a3d 7297 fdbc a20a 353e
00000260: aefa a63d 3769 18bd 249a a93c f052 b73d
00000270: 9997 e9bc 294b aebd 0d0e 9c3d 9656 3abd
00000280: 515d 173e 461d 17be 25e8 bb3c a4a1 e1bc
00000290: e825 26bb dbe3 903e e074 acbc 736c e739
000002a0: 72e0 4c3d 9fd0 babc 1716 853b 629f 55bd
000002b0: 4d8b 84bc 6cb5 02bd 6ccf a8ba 5c86 41bb
000002c0: 23c2 79bd b1a1 853d 3f01 0dbd 5a5d f4bd
000002d0: 01ee 643d a0c5 86bc f3c8 44bc 0193 0f3e
000002e0: 390f 43bc b0ca a73c 7b91 aabd 231a 3ebd
000002f0: 2a70 e8bc 5bdd 99bd b4f3 0dbc 4cba 46bc
00000300: 066a eb3b 71ad 2ebd 0a72 933c 05cf 313e
00000310: 608d 993c 12d6 64bd 0503 21bd 6fc5 113d
00000320: d9db b83c 1340 8f3c 95ac b5bb 12ae 853e
00000330: bced 29bc c50a b53a 2c93 b5bc 628a 9c3c
00000340: ff7b c83c 2f8a c9bb 7633 9bbd 32ad ebbd
00000350: e276 423e 7c74 f73c 98d9 d73d 69f3 0ebd
00000360: d23c 713d 8037 323d 6c7d 4fbd ffcb 393d
00000370: cb9d 58bc 5304 8ebc 6e56 ec3d 4a21 d7bc
00000380: 0bde 853d 68b9 debd 9a3d 90bc 0af4 6e3d
00000390: 4ee4 0ebd e32a 503c 6fd5 f2bd 9986 58bc
000003a0: 3907 113d 9145 2dbd 3f43 a1bd d0e3 ff3d
000003b0: f69a deba c916 c33c cbc9 a43c 3589 9b3c
000003c0: 9569 33bd cf02 903e 6afb 8e3c 464d 253e
000003d0: 21f2 d0bc 1cbc 2c3d 8dac 2b3e f671 79bc
000003e0: 7d51 de3d 5d33 d73d b421 13be 57fc 10bc
000003f0: 940b 55bc b2e5 333c 351d c7bc 93ad 57bc
0.038520332 0.024893643 0.010490999 -0.01722852 -0.042940978 -0.1532115 0.00446629 -0.02369422
0.06701955 0.092239074 0.03756831 0.002835885 -0.0035820382 -0.056694005 0.15845004 0.08651065
0.07212562 0.0010623846 0.18774708 -0.09516809 -0.060541283 -0.04335476 0.031599004 -0.15085286
0.032815333 0.112723194 -0.048700113 0.044239745 0.0062894 0.020659644 0.024485525 -0.0429402
0.024452513 -0.060133513 -0.0797142 0.037578236 0.1359157 -0.053253584 0.010141417 0.19908345
0.06475106 -0.019166613 0.39655924 -0.16243796 -0.06583887 0.22405317 -0.018372305 0.010990687
-0.016788198 -0.01972545 -0.016140461 0.10626495 -0.0038269346 0.29635867 0.012007725 -0.12500226
-0.008284748 0.0049403487 0.17730252 -0.1645981 0.20567413 -0.07166657 0.03594256 0.0035222324
0.17441499 0.023414996 0.0072534843 -0.08863759 0.087609455 -0.02559429 -0.015699487 0.18400416
-0.03975056 -0.017404689 0.42123976 -0.021822356 -0.08702372 -0.031133886 0.11900248 -0.02635578
0.07560528 0.23852262 -0.07551576 -0.34303468 -0.04992888 -0.0004653486 -0.022418978 0.0021940763
-0.012755293 -0.027246028 0.032835472 -0.011930227 -0.019227093 0.09411803 0.0018895855 -0.001149001
0.21976009 -0.15680817 -0.005160952 0.08695882 -0.03230535 -0.010668033 -0.03713524 -0.0106603885
0.06986159 0.029185968 -0.026640844 -0.018909516 0.0023041565 -0.027335417 0.2246176 0.018927228
-0.028069234 0.005866115 -0.03150861 0.051482096 -0.06269322 0.2804045 -0.045881234 0.0025155845
0.09190242 -0.03139775 -0.050313983 0.0070814383 -0.08056377 -0.0014494183 -0.012298155 0.03433954
0.059967276 0.18898064 0.0452159 -0.021497343 -0.007885478 0.0029476837 0.08630974 0.010951131
-0.024654893 0.02759905 0.031034926 -0.03606438 -0.056649353 -0.028486308 0.024700617 -0.011596055
0.0040893834 -0.13376957 0.0023901141 -0.024438607 0.020073054 0.053459615 -0.030956004 0.17679837
0.08153282 -0.037209716 0.020703383 0.08951366 -0.02851467 -0.085104294 0.076198675 -0.04549273
0.14781691 -0.1475726 0.022937844 -0.027542897 -0.0025352184 0.2829884 -0.021051824 0.00044140554
0.050018735 -0.022804556 0.004061471 -0.052153952 -0.016179705 -0.0319113 -0.0012879199 -0.0029529547
-0.06097616 0.06524981 -0.034425016 -0.11931868 0.05589104 -0.016451657 -0.012010801 0.14020921
-0.011905485 0.020482391 -0.083285294 -0.046411645 -0.028373796 -0.07512923 -0.00866406 -0.012129378
0.00718427 -0.042645875 0.017998714 0.17364128 0.01874417 -0.055868216 -0.03930952 0.035588678
0.022565769 0.017486608 -0.005544255 0.26109368 -0.010371622 0.0013812414 -0.022164904 0.019108955
0.024473188 -0.006150506 -0.07578175 -0.11507644 0.18990663 0.030206911 0.105395496 -0.034900103
0.058895893 0.04350996 -0.05065672 0.04536056 -0.0132212145 -0.017336046 0.11539923 -0.02626099
0.06536492 -0.10875207 -0.017607499 0.058338203 -0.034885697 0.0127055375 -0.118571155 -0.013215684
0.03540728 -0.04230267 -0.07874154 0.12494624 -0.0016983438 0.023814576 0.020115754 0.018986324
-0.043801863 0.28127143 0.017453868 0.16142759 -0.025506081 0.042171583 0.16765042 -0.015224924
0.108553864 0.10507844 -0.14368325 -0.008849225 -0.013003249 0.010980057 -0.02430592 -0.013163942

fc3.bias f4 [2]
00000000: 7f00 0ebd c258 18bd
-0.03466844 -0.03719402

bn1.weight f4 [256]
00000000: fe9f b93e c19e 723f 30d8 d03e 1ccc 243e
00000010: b698 823e cfda 363f cd18 143f d62e 923e
00000020: 5c00 073f 9826 cc3d 42d8 033f 8ebf 603f
00000030: 005d e63e 4b6e 3d3f 0071 193d d80b 3a3f
00000040: f010 ec3e 5096 583d f899 4e3e e29a 7d3f
00000050: 807f d23e 3454 253e d027 d83e 0233 cb3e
00000060: 1c06 b93e 3053 ec3e 5a3f b53e 7637 ef3e
00000070: 1882 933d 43d7 4b3f 80b0 c03c 1065 143f
00000080: 8ac5 373f 37cd 3d3f abea 333f 1e83 153f
00000090: 963d 643f a022 2b3d 8d1e 383f 0044 f03a
000000a0: d8ec 3b3e c057 903c 9e0c 093f f0fc 643e
000000b0: 28b8 9f3d 2272 e33e a1c3 073f c33a 313f
000000c0: 182e 543e d83b d93e 40a0 5b3c 30b3 3f3d
000000d0: c399 413f 98e1 883e 9b7b 333f 4598 243f
000000e0: a239 4c3f e2d7 183f baf0 dc3e f29e 4c3f
000000f0: 4cb8 d03e b0f9 603d 84e9 533e 2553 203f
00000100: 0191 3f3f 44ef 0d3e f6e7 f73e d1da 773f
00000110: 557a 5e3f 6716 0c3f f809 0d3f 40a3 b53c
00000120: 1034 273f a607 953e 0751 663f 4272 113f
00000130: a28b b93e 6b48 273f f831 f33e ae11 693f
00000140: 91ab 413f 44c9 543f 5dfb 503f 6cd4 c43e
00000150: d0a0 463e d444 533f 3b8d 543f 198f 263f
00000160: 4bff 603f 4ca4 263e 102c 383e 80cd 9d3e
00000170: 003a bf3d ae2b 143f e257 eb3e c6d9 a53e
00000180: 30e0 793e 3616 003f 9e41 543f 66d6 6e3f
00000190: 0faf 1e3f 545b 333e e048 c63c 580c 8d3d
000001a0: 2000 d63d ec35 6b3f 2aa2 ca3e ec4d 553f
000001b0: 188b ee3e 74a2 543f 6b9d 0f3f 5217 593f
000001c0: 7c84 713f 8e3c d73e 40cb bd3d cc21 953e
000001d0: 106d 993e 73ab 1f3f 3cae 223e 1aab 8b3e
000001e0: 80ff c63c 8314 053f 9377 0c3f 5807 463e
000001f0: 9032 663f b083 b33d ee68 de3e 4764 143f
00000200: 9c4d 503e ee49 663f 30f6 893d 7eb1 293f
00000210: 98a6 243e e62e 903e aa43 d33e b62c c63e
00000220: d2ea 4e3f f0c6 3e3d 9e7d 133f 7031 703d
00000230: 93cf 373f d493 613e 6055 793f 6dfb 6d3f
00000240: bc22 553f 5689 b03e c8d6 6c3f f450 073f
00000250: 9806 393f f05b 273f 10f9 233d 4334 633f
00000260: 4fca 0e3f 9241 f23e 2448 0f3e 265c d23e
00000270: af52 323f bf19 553f e076 1f3f a869 9c3e
00000280: e225 6e3f ad19 7a3f a236 023f 5b3a 193f
00000290: bfb8 493f 9826 b33e 0c41 173e fc8a 763e
000002a0: 25a4 2d3f 6c8f 513e 552b 693f 5c13 7a3f
000002b0: 79a3 483f cd38 263f 4862 ac3e 10d6 e33d
000002c0: 70a3 c23e 10d1 ba3e d293 1b3f 81c3 633f
000002d0: c761 3f3f d04f 373f 7c44 603f 19df 563f
000002e0: 40c5 3c3c cc72 c83e c3ce 7f3f 80b2 683d
000002f0: 1e6c 693f 11ca 453f a526 583f d5d9 253f
00000300: eeb9 843e ebba 3c3f 6005 623e 18bd 633e
00000310: 48c1 b43d f219 cf3e 5455 ea3e 0016 553d
00000320: 8073 403c ed5a 093f 2464 7e3e f044 f73e
00000330: 18d7 e13d a064 d23c 912a 3c3f 974c 4a3f
00000340: 5873 cd3d c02d 9d3c 82d4 f73e 9b8c 743f
00000350: d05c 6d3f 6a0a a93e 007b 603c f8f4 833d
00000360: aa0a fc3e 0a79 1e3f a24a 983e 6f04 703f
00000370: 6ef7 1e3f 9e29 2d3f 8e55 bf3e f2f9 973e
00000380: 7434 303f 68a2 b63e 86b8 ec3e c49f 423e
00000390: 803a 1d3c 0825 513f 9876 ad3e c4d0 fa3e
000003a0: 0630 2a3f 603d bb3e 328f 903e 960d 443f
000003b0: 7a20 a93e be66 313f b144 0a3f 2ab1 2c3f
000003c0: e4ec 503f e0bf 6c3e c80a de3e c8f7 f33d
000003d0: dca5 163e 66d1 863e 38d3 9c3e 16bd 2b3f
000003e0: a4b3 403f 8070 8f3c 8766 213f cc90 d73e
000003f0: 0012 d93c 503d 063d d6fc 413f 43aa 763f
0.36254877 0.9477349 0.40789938 0.16093487 0.25507134 0.71427625 0.57850343 0.28551358
0.52734923 0.09968299 0.5150186 0.8779229 0.44992828 0.7399642 0.03746128 0.7267432
0.46106672 0.052877724 0.20175922 0.9906446 0.411129 0.16145402 0.42217875 0.39687353
0.36137474 0.46157217 0.35399896 0.46722 0.07202548 0.7962534 0.023521662 0.5796671
0.71785796 0.7414126 0.7027995 0.58403194 0.8915647 0.041781068 0.71921617 0.0018330812
0.18352067 0.017619967 0.5353488 0.22362113 0.07798797 0.44423014 0.5303288 0.6923029
0.20720708 0.4242847 0.013404906 0.046801746 0.75625247 0.26734614 0.7011048 0.64294845
0.7977544 0.5970441 0.4315241 0.7993003 0.40765607 0.05492562 0.20694548 0.6262687
0.74830633 0.13860804 0.4841916 0.9681826 0.86905414 0.54721683 0.55093336 0.02217257
0.65313816 0.29107398 0.8996739 0.5681497 0.36239344 0.65344876 0.4749906 0.910426
0.75652415 0.83119607 0.8163355 0.38443315 0.19397283 0.825269 0.83028 0.650621
0.87889546 0.16273612 0.17985559 0.30820847 0.093372345 0.5787915 0.45965487 0.3239271
0.24401927 0.5003389 0.82912624 0.93295896 0.6198587 0.17515308 0.024204671 0.0688712
0.104492426 0.91879153 0.39576846 0.83322024 0.46590495 0.83060384 0.56099576 0.8480121
0.9434278 0.42038387 0.092672825 0.29127347 0.2996602 0.62370986 0.15886778 0.27278978
0.024291754 0.51984423 0.54869956 0.19338739 0.899209 0.08765352 0.4343943 0.5796551
0.20342106 0.8995656 0.0673641 0.66286457 0.16079175 0.2816078 0.4126256 0.38705987
0.8082706 0.04657644 0.5761355 0.058640897 0.7180111 0.22029048 0.97395897 0.9296177
0.83256125 0.3447978 0.9251523 0.528579 0.72275686 0.6537466 0.040032446 0.8875162
0.5577745 0.4731565 0.13992363 0.4108593 0.69657415 0.8324241 0.62290764 0.3054936
0.93026555 0.9769543 0.50864613 0.5985467 0.78797525 0.34990382 0.14770907 0.24076456
0.6782859 0.20464867 0.91081744 0.9768579 0.7837444 0.6493042 0.33668733 0.111248136
0.38015318 0.36487627 0.6077243 0.8897019 0.7475857 0.7160616 0.876045 0.8393417
0.011521637 0.39150083 0.9992487 0.056810856 0.911806 0.77261454 0.84433967 0.6478551
0.25923103 0.73722714 0.22072363 0.22240102 0.08825928 0.40449482 0.45768225 0.052022934
0.011746287 0.53654367 0.24842888 0.48294783 0.11027354 0.025682747 0.7350245 0.79023117
0.10031766 0.019186854 0.48404318 0.95527047 0.92719746 0.33015758 0.0137012005 0.064432085
0.49226886 0.6190344 0.2974444 0.93756765 0.620963 0.6764163 0.3736996 0.2968288
0.6883004 0.3567078 0.4623453 0.19006258 0.009596467 0.8169713 0.33879542 0.489874
0.6647953 0.36570263 0.2823425 0.7658323 0.3303259 0.692974 0.54011065 0.6745783
0.81611466 0.2312007 0.433676 0.11912495 0.14711708 0.26331633 0.30629897 0.670854
0.7527411 0.017509699 0.6304707 0.4210266 0.02649784 0.032773316 0.7577642 0.9635355

bn1.bias f4 [256]
00000000: 0000 0000 0000 0000 0000 0000 0000 0000
00000010: 0000 0000 0000 0000 0000 0000 0000 0000
00000020: 0000 0000 0000 0000 0000 0000 0000 0000
00000030: 0000 0000 0000 0000 0000 0000 0000 0000
00000040: 0000 0000 0000 0000 0000 0000 0000 0000
00000050: 0000 0000 0000 0000 0000 0000 0000 0000
00000060: 0000 0000 0000 0000 0000 0000 0000 0000
00000070: 0000 0000 0000 0000 0000 0000 0000 0000
00000080: 0000 0000 0000 0000 0000 0000 0000 0000
00000090: 0000 0000 0000 0000 0000 0000 0000 0000
000000a0: 0000 0000 0000 0000 0000 0000 0000 0000
000000b0: 0000 0000 0000 0000 0000 0000 0000 0000
000000c0: 0000 0000 0000 0000 0000 0000 0000 0000
000000d0: 0000 0000 0000 0000 0000 0000 0000 0000
000000e0: 0000 0000 0000 0000 0000 0000 0000 0000
000000f0: 0000 0000 0000 0000 0000 0000 0000 0000
00000100: 0000 0000 0000 0000 0000 0000 0000 0000
00000110: 0000 0000 0000 0000 0000 0000 0000 0000
00000120: 0000 0000 0000 0000 0000 0000 0000 0000
00000130: 0000 0000 0000 0000 0000 0000 0000 0000
00000140: 0000 0000 0000 0000 0000 0000 0000 0000
00000150: 0000 0000 0000 0000 0000 0000 0000 0000
00000160: 0000 0000 0000 0000 0000 0000 0000 0000
00000170: 0000 0000 0000 0000 0000 0000 0000 0000
00000180: 0000 0000 0000 0000 0000 0000 0000 0000
00000190: 0000 0000 0000 0000 0000 0000 0000 0000
000001a0: 0000 0000 0000 0000 0000 0000 0000 0000
000001b0: 0000 0000 0000 0000 0000 0000 0000 0000
000001c0: 0000 0000 0000 0000 0000 0000 0000 0000
000001d0: 0000 0000 0000 0000 0000 0000 0000 0000
000001e0: 0000 0000 0000 0000 0000 0000 0000 0000
000001f0: 0000 0000 0000 0000 0000 0000 0000 0000
00000200: 0000 0000 0000 0000 0000 0000 0000 0000
00000210: 0000 0000 0000 0000 0000 0000 0000 0000
00000220: 0000 0000 0000 0000 0000 0000 0000 0000
00000230: 0000 0000 0000 0000 0000 0000 0000 0000
00000240: 0000 0000 0000 0000 0000 0000 0000 0000
00000250: 0000 0000 0000 0000 0000 0000 0000 0000
00000260: 0000 0000 0000 0000 0000 0000 0000 0000
00000270: 0000 0000 0000 0000 0000 0000 0000 0000
00000280: 0000 0000 0000 0000 0000 0000 0000 0000
00000290: 0000 0000 0000 0000 0000 0000 0000 0000
000002a0: 0000 0000 0000 0000 0000 0000 0000 0000
000002b0: 0000 0000 0000 0000 0000 0000 0000 0000
000002c0: 0000 0000 0000 0000 0000 0000 0000 0000
000002d0: 0000 0000 0000 0000 0000 0000 0000 0000
000002e0: 0000 0000 0000 0000 0000 0000 0000 0000
000002f0: 0000 0000 0000 0000 0000 0000 0000 0000
00000300: 0000 0000 0000 0000 0000 0000 0000 0000
00000310: 0000 0000 0000 0000 0000 0000 0000 0000
00000320: 0000 0000 0000 0000 0000 0000 0000 0000
00000330: 0000 0000 0000 0000 0000 0000 0000 0000
00000340: 0000 0000 0000 0000 0000 0000 0000 0000
00000350: 0000 0000 0000 0000 0000 0000 0000 0000
00000360: 0000 0000 0000 0000 0000 0000 0000 0000
00000370: 0000 0000 0000 0000 0000 0000 0000 0000
00000380: 0000 0000 0000 0000 0000 0000 0000 0000
00000390: 0000 0000 0000 0000 0000 0000 0000 0000
000003a0: 0000 0000 0000 0000 0000 0000 0000 0000
000003b0: 0000 0000 0000 0000 0000 0000 0000 0000
000003c0: 0000 0000 0000 0000 0000 0000 0000 0000
000003d0: 0000 0000 0000 0000 0000 0000 0000 0000
000003e0: 0000 0000 0000 0000 0000 0000 0000 0000
000003f0: 0000 0000 0000 0000 0000 0000 0000 0000
0.0 0.0 0.0 0.0 0.0 0.0 0.0 0.0
0.0 0.0 0.0 0.0 0.0 0.0 0.0 0.0
0.0 0.0 0.0 0.0 0.0 0.0 0.0 0.0
0.0 0.0 0.0 0.0 0.0 0.0 0.0 0.0
0.0 0.0 0.0 0.0 0.0 0.0 0.0 0.0
0.0 0.0 0.0 0.0 0.0 0.0 0.0 0.0
0.0 0.0 0.0 0.0 0.0 0.0 0.0 0.0
0.0 0.0 0.0 0.0 0.0 0.0 0.0 0.0
0.0 0.0 0.0 0.0 0.0 0.0 0.0 0.0
0.0 0.0 0.0 0.0 0.0 0.0 0.0 0.0
0.0 0.0 0.0 0.0 0.0 0.0 0.0 0.0
0.0 0.0 0.0 0.0 0.0 0.0 0.0 0.0
0.0 0.0 0.0 0.0 0.0 0.0 0.0 0.0
0.0 0.0 0.0 0.0 0.0 0.0 0.0 0.0
0.0 0.0 0.0 0.0 0.0 0.0 0.0 0.0
0.0 0.0 0.0 0.0 0.0 0.0 0.0 0.0
0.0 0.0 0.0 0.0 0.0 0.0 0.0 0.0
0.0 0.0 0.0 0.0 0.0 0.0 0.0 0.0
0.0 0.0 0.0 0.0 0.0 0.0 0.0 0.0
0.0 0.0 0.0 0.0 0.0 0.0 0.0 0.0
0.0 0.0 0.0 0.0 0.0 0.0 0.0 0.0
0.0 0.0 0.0 0.0 0.0 0.0 0.0 0.0
0.0 0.0 0.0 0.0 0.0 0.0 0.0 0.0
0.0 0.0 0.0 0.0 0.0 0.0 0.0 0.0
0.0 0.0 0.0 0.0 0.0 0.0 0.0 0.0
0.0 0.0 0.0 0.0 0.0 0.0 0.0 0.0
0.0 0.0 0.0 0.0 0.0 0.0 0.0 0.0
0.0 0.0 0.0 0.0 0.0 0.0 0.0 0.0
0.0 0.0 0.0 0.0 0.0 0.0 0.0 0.0
0.0 0.0 0.0 0.0 0.0 0.0 0.0 0.0
0.0 0.0 0.0 0.0 0.0 0.0 0.0 0.0
0.0 0.0 0.0 0.0 0.0 0.0 0.0 0.0

bn1.running_mean f4 [256]
00000000: 0000 0000 0000 0000 0000 0000 0000 0000
00000010: 0000 0000 0000 0000 0000 0000 0000 0000
00000020: 0000 0000 0000 0000 0000 0000 0000 0000
00000030: 0000 0000 0000 0000 0000 0000 0000 0000
00000040: 0000 0000 0000 0000 0000 0000 0000 0000
00000050: 0000 0000 0000 0000 0000 0000 0000 0000
00000060: 0000 0000 0000 0000 0000 0000 0000 0000
00000070: 0000 0000 0000 0000 0000 0000 0000 0000
00000080: 0000 0000 0000 0000 0000 0000 0000 0000
00000090: 0000 0000 0000 0000 0000 0000 0000 0000
000000a0: 0000 0000 0000 0000 0000 0000 0000 0000
000000b0: 0000 0000 0000 0000 0000 0000 0000 0000
000000c0: 0000 0000 0000 0000 0000 0000 0000 0000
000000d0: 0000 0000 0000 0000 0000 0000 0000 0000
000000e0: 0000 0000 0000 0000 0000 0000 0000 0000
000000f0: 0000 0000 0000 0000 0000 0000 0000 0000
00000100: 0000 0000 0000 0000 0000 0000 0000 0000
00000110: 0000 0000 0000 0000 0000 0000 0000 0000
00000120: 0000 0000 0000 0000 0000 0000 0000 0000
00000130: 0000 0000 0000 0000 0000 0000 0000 0000
00000140: 0000 0000 0000 0000 0000 0000 0000 0000
00000150: 0000 0000 0000 0000 0000 0000 0000 0000
00000160: 0000 0000 0000 0000 0000 0000 0000 0000
00000170: 0000 0000 0000 0000 0000 0000 0000 0000
00000180: 0000 0000 0000 0000 0000 0000 0000 0000
00000190: 0000 0000 0000 0000 0000 0000 0000 0000
000001a0: 0000 0000 0000 0000 0000 0000 0000 0000
000001b0: 0000 0000 0000 0000 0000 0000 0000 0000
000001c0: 0000 0000 0000 0000 0000 0000 0000 0000
000001d0: 0000 0000 0000 0000 0000 0000 0000 0000
000001e0: 0000 0000 0000 0000 0000 0000 0000 0000
000001f0: 0000 0000 0000 0000 0000 0000 0000 0000
00000200: 0000 0000 0000 0000 0000 0000 0000 0000
00000210: 0000 0000 0000 0000 0000 0000 0000 0000
00000220: 0000 0000 0000 0000 0000 0000 0000 0000
00000230: 0000 0000 0000 0000 0000 0000 0000 0000
00000240: 0000 0000 0000 0000 0000 0000 0000 0000
00000250: 0000 0000 0000 0000 0000 0000 0000 0000
00000260: 0000 0000 0000 0000 0000 0000 0000 0000
00000270: 0000 0000 0000 0000 0000 0000 0000 0000
00000280: 0000 0000 0000 0000 0000 0000 0000 0000
00000290: 0000 0000 0000 0000 0000 0000 0000 0000
000002a0: 0000 0000 0000 0000 0000 0000 0000 0000
000002b0: 0000 0000 0000 0000 0000 0000 0000 0000
000002c0: 0000 0000 0000 0000 0000 0000 0000 0000
000002d0: 0000 0000 0000 0000 0000 0000 0000 0000
000002e0: 0000 0000 0000 0000 0000 0000 0000 0000
000002f0: 0000 0000 0000 0000 0000 0000 0000 0000
00000300: 0000 0000 0000 0000 0000 0000 0000 0000
00000310: 0000 0000 0000 0000 0000 0000 0000 0000
00000320: 0000 0000 0000 0000 0000 0000 0000 0000
00000330: 0000 0000 0000 0000 0000 0000 0000 0000
00000340: 0000 0000 0000 0000 0000 0000 0000 0000
00000350: 0000 0000 0000 0000 0000 0000 0000 0000
00000360: 0000 0000 0000 0000 0000 0000 0000 0000
00000370: 0000 0000 0000 0000 0000 0000 0000 0000
00000380: 0000 0000 0000 0000 0000 0000 0000 0000
00000390: 0000 0000 0000 0000 0000 0000 0000 0000
000003a0: 0000 0000 0000 0000 0000 0000 0000 0000
000003b0: 0000 0000 0000 0000 0000 0000 0000 0000
000003c0: 0000 0000 0000 0000 0000 0000 0000 0000
000003d0: 0000 0000 0000 0000 0000 0000 0000 0000
000003e0: 0000 0000 0000 0000 0000 0000 0000 0000
000003f0: 0000 0000 0000 0000 0000 0000 0000 0000
0.0 0.0 0.0 0.0 0.0 0.0 0.0 0.0
0.0 0.0 0.0 0.0 0.0 0.0 0.0 0.0
0.0 0.0 0.0 0.0 0.0 0.0 0.0 0.0
0.0 0.0 0.0 0.0 0.0 0.0 0.0 0.0
0.0 0.0 0.0 0.0 0.0 0.0 0.0 0.0
0.0 0.0 0.0 0.0 0.0 0.0 0.0 0.0
0.0 0.0 0.0 0.0 0.0 0.0 0.0 0.0
0.0 0.0 0.0 0.0 0.0 0.0 0.0 0.0
0.0 0.0 0.0 0.0 0.0 0.0 0.0 0.0
0.0 0.0 0.0 0.0 0.0 0.0 0.0 0.0
0.0 0.0 0.0 0.0 0.0 0.0 0.0 0.0
0.0 0.0 0.0 0.0 0.0 0.0 0.0 0.0
0.0 0.0 0.0 0.0 0.0 0.0 0.0 0.0
0.0 0.0 0.0 0.0 0.0 0.0 0.0 0.0
0.0 0.0 0.0 0.0 0.0 0.0 0.0 0.0
0.0 0.0 0.0 0.0 0.0 0.0 0.0 0.0
0.0 0.0 0.0 0.0 0.0 0.0 0.0 0.0
0.0 0.0 0.0 0.0 0.0 0.0 0.0 0.0
0.0 0.0 0.0 0.0 0.0 0.0 0.0 0.0
0.0 0.0 0.0 0.0 0.0 0.0 0.0 0.0
0.0 0.0 0.0 0.0 0.0 0.0 0.0 0.0
0.0 0.0 0.0 0.0 0.0 0.0 0.0 0.0
0.0 0.0 0.0 0.0 0.0 0.0 0.0 0.0
0.0 0.0 0.0 0.0 0.0 0.0 0.0 0.0
0.0 0.0 0.0 0.0 0.0 0.0 0.0 0.0
0.0 0.0 0.0 0.0 0.0 0.0 0.0 0.0
0.0 0.0 0.0 0.0 0.0 0.0 0.0 0.0
0.0 0.0 0.0 0.0 0.0 0.0 0.0 0.0
0.0 0.0 0.0 0.0 0.0 0.0 0.0 0.0
0.0 0.0 0.0 0.0 0.0 0.0 0.0 0.0
0.0 0.0 0.0 0.0 0.0 0.0 0.0 0.0
0.0 0.0 0.0 0.0 0.0 0.0 0.0 0.0
