checkpoint_actor_0.pth (torch_old, 296400 bytes, 10 tensors)

fc1.weight f4 [256, 24]
000000 a3 3a 31 bd 1e 31 df 3c 9f b2 af 3c 02 3c cb bd
       -0.04326881 0.0272451 0.021447478 -0.09923555
000010 c8 25 84 3d da eb ba 3b af 4d 1f bc 38 5b b8 bc
       0.06452519 0.005704385 -0.009723111 -0.022504434
000020 50 1d 78 3d 44 80 1c bd 30 23 02 bd f7 4a 1c 3d
       0.06057483 -0.03820826 -0.03177184 0.03815743
000030 53 55 c5 bb ef e7 09 3d 7a 74 36 3d db 47 5b 3d
       -0.0060221343 0.033668455 0.044544674 0.053535324
000040 f7 9f a8 3d 4a ce 21 bd 5b cf 38 3c 9e b6 cb 3d
       0.08233636 -0.039503373 0.011279906 0.09946941
000050 1f b2 47 be 9b 06 43 3e 96 6e 93 bc 62 5c a6 3d
       -0.19501542 0.19045489 -0.017997067 0.081230894
000060 70 fb 65 3d 6b 79 01 3e 7c 1f ac bc 9b 80 44 bd
       0.056147993 0.12643974 -0.021011107 -0.04797421
000070 f7 fb 50 3d ce 29 87 3d ed 2e 9a 3d 9a 92 d3 3b
       0.051021542 0.065997705 0.07528482 0.0064566853
000080 9f 1e 58 bb 06 80 91 3d ce a1 93 3c 92 cb 98 bd
       -0.0032977236 0.07104497 0.01802149 -0.07460703
000090 c4 3b 00 3e 87 66 01 3d 27 72 f7 bc 98 48 14 be
       0.12522799 0.03159192 -0.0302058 -0.14480817
0000a0 21 01 8d 3d 22 fc 9c 3c b3 df 35 3d bc 68 cc bc
       0.06884981 0.019163195 0.04440279 -0.024952285
0000b0 d1 28 72 3e 1b be fb bd 58 f4 fb bc 80 61 bc bd
       0.23648383 -0.12292119 -0.03075616 -0.09198284
0000c0 07 aa a1 bd 7d ac f5 3c f9 44 29 bc 04 4b b4 bc
       -0.07893758 0.029989475 -0.010331386 -0.022008426
0000d0 fa 45 3b 3d e3 63 09 be 08 c0 ba bc 82 80 b4 bd
       0.04572103 -0.1341701 -0.022796646 -0.088135734
0000e0 81 d9 e7 3c 9d 67 ec bd 62 03 b1 bc 00 bd db bc
       0.028301956 -0.115432 -0.021608058 -0.02682352
0000f0 01 86 f3 3c 4e 47 09 be 95 2a 3c 3b 80 7b a2 bd
       0.029726984 -0.13406107 0.0028711904 -0.07933712
000100 e9 48 9f bc 8c 1d 39 be 6c 04 d8 3a 31 7e 87 bd
       -0.019443946 -0.18077677 0.001648081 -0.06615866
000110 9d 0f 7b 3d 68 34 d0 3d b9 e7 c5 3c 07 29 22 3d
       0.061294187 0.10166246 0.024158346 0.039589908
000120 1f 34 63 3c 45 b0 58 bd d0 3b 6d 3c 74 05 21 be
       0.013867407 -0.05290248 0.014479592 -0.15724736
000130 14 5e bb 3d a4 36 9f bd 5d 09 f8 b9 5a 95 0d be
       0.09148803 -0.07774094 -0.00047309222 -0.13826504
000140 79 75 84 3d af c5 b8 bd d9 b5 58 3d bb 25 69 3c
       0.06467719 -0.0902208 0.0529078 0.014230187
000150 ba 44 f3 3d e8 f3 9d 3c 03 30 42 3d 4e 6f 0e 3c
       0.11878343 0.019281343 0.04740907 0.008693529
000160 52 4a 89 bd 27 d8 6d be 5b 9b 18 3d 8c 49 97 3d
       -0.067036286 -0.23226987 0.037257534 0.07387075
000170 ce 56 17 3e 51 ba 3c 3e a3 82 e5 bc 30 18 57 3d
       0.14779207 0.18430449 -0.028016394 0.0525133
000180 f7 4d cd bc 04 2e 3e 3e 87 4e 10 3d 59 82 66 bd
       -0.02506159 0.18572241 0.03523114 -0.056276653
000190 f4 1d e1 3c 4f 25 96 3d 88 de 29 bc b6 82 09 be
       0.027480103 0.07331335 -0.010367997 -0.13428769
0001a0 2e 79 67 bd 63 c4 68 3d c4 86 ee 3b cc 82 51 bd
       -0.05651205 0.056827914 0.007279249 -0.05115013
0001b0 f9 d6 86 bc 56 25 82 3d 11 89 79 3c 94 52 00 bd
       -0.016459929 0.063547775 0.015230433 -0.031328753
0001c0 f3 95 2a bd bc 0b a8 3d 1a df d3 bc dc 89 e1 bd
       -0.04164691 0.08205363 -0.025863219 -0.11012623
0001d0 36 fc 9e bd da 11 f7 bd 8f 7d 72 bc 34 c6 c0 bc
       -0.07762949 -0.12063952 -0.014800443 -0.02353201
0001e0 ea cc 8b 3c 28 5b 05 bc c3 8e b6 3c 49 79 b4 3d
       0.017065484 -0.008139409 0.022284871 0.08812196
0001f0 ec e9 07 3e 97 4d 8c 3c 74 b7 f2 3b a7 f6 09 3b
       0.13272828 0.017126841 0.007407123 0.0021051557
000200 f5 63 c7 3d d7 23 1e bd 88 0f b8 3c bc 3c c0 bc
       0.09735862 -0.0386084 0.022468343 -0.02346646
000210 0c f2 21 bc d8 da 0d 3e e7 a7 bb 3d c8 c3 c6 3c
       -0.009884369 0.13853014 0.09162884 0.024263278
000220 8a 09 57 3d 9c e5 d3 bc ee 01 45 3d 74 f6 c5 3d
       0.05249933 -0.025866322 0.048097543 0.09666148
000230 25 0d e2 bd 3c 7c 15 3e 46 5c 6e 3d 40 00 73 3d
       -0.11037663 0.14598173 0.058193468 0.05932641
000240 b5 be 1c bd 2e 98 55 3e 6d 12 e5 3c 23 48 70 bc
       -0.03826781 0.20858833 0.027962888 -0.014665636
000250 bb 60 d5 bc 8d e4 c3 bc 31 0c 8f bc 3b 00 38 bd
       -0.026047101 -0.023912692 -0.017461868 -0.044922095
000260 73 4b 40 bc 09 e7 13 3e 34 a3 33 bc d0 32 e4 3c
       -0.0117367385 0.14443602 -0.010964204 0.02785626
000270 0c 9e 7f 3d 00 1d 89 bc e4 82 9e 3b 47 69 c7 3d
       0.062406585 -0.016737461 0.0048373807 0.09736877
000280 46 f8 11 bd 3a b9 fc ba c1 83 07 3d b1 c7 4e bd
       -0.035637163 -0.0019281276 0.033084635 -0.05048341
000290 4a c1 7a bc fb 63 4c be 67 9b 23 bd e1 2c 12 bd
       -0.015304873 -0.19960015 -0.039943125 -0.03568733
0002a0 0c 65 94 bd 21 73 8e 3d 70 3f 62 bd 4d 12 5c bd
       -0.07245836 0.06955553 -0.05523628 -0.05372839
0002b0 59 b9 f9 bc b9 e9 0d 3e 63 fc 91 bd 51 c7 35 bd
       -0.030483888 0.1385869 -0.07128217 -0.044379536
0002c0 95 69 92 bd 15 61 18 3d 57 5f 81 bd 55 67 2f bd
       -0.071490444 0.03720196 -0.06317013 -0.042823154
0002d0 dd eb 05 3d 76 b4 8b bd bf 1c 66 bd ed a4 36 3d
       0.03269564 -0.068215296 -0.05617976 0.04459088
0002e0 30 1f a3 ba 48 b1 91 3d df ca 10 3d ea 89 da bc
       -0.0012445208 0.07113892 0.035349723 -0.02667709
0002f0 8f 71 7b 3d a7 cf 36 be 21 e8 89 bc 2e 8d 85 bd
       0.061387595 -0.1785265 -0.01683432 -0.065210685
000300 62 5c bf bc c7 74 d0 3c 09 43 58 3c d6 27 ab 3c
       -0.023359481 0.025446309 0.013199576 0.020893019
000310 cb 11 cb 3d 59 be 4a 3c 7b 84 0c 3c 32 87 12 3c
       0.09915503 0.012374484 0.008576508 0.008943366
000320 6a 6b 78 3c ae 09 fc bd f2 f2 64 bd b2 55 f1 bd
       0.015162328 -0.12306534 -0.055895753 -0.11783923
000330 bc b5 f2 3d 89 79 05 3d aa 24 4c bd 62 19 ab bd
       0.11851069 0.032586608 -0.049839653 -0.08354451
000340 7c 0e 1e bd f0 23 b4 bd b9 19 ae bd af b9 92 3d
       -0.038588032 -0.08795917 -0.08501 0.071643226
000350 06 7e 35 3e 79 3b 7e bd 7d 9a 7e bd 66 a9 91 3d
       0.17723855 -0.062068436 -0.06215905 0.07112388
000360 a1 c8 c7 3d 88 84 df 3d 4b ab e6 3c 23 c7 77 3d
       0.09755064 0.1091395 0.02815785 0.060492646
000370 a3 43 70 3d cb 02 74 b9 bb 55 a2 bc ce 66 13 bd
       0.058658253 -0.00023270694 -0.01981627 -0.035986714
000380 28 72 a4 ba e2 6b d1 3d 8f ce 98 3c 74 75 e8 3c
       -0.0012546228 0.10225655 0.018653182 0.028376319
000390 c9 7e d6 3d 59 cd 0b 3d 87 30 4c 3d 82 a5 97 bc
       0.10473401 0.03413138 0.049850967 -0.018511537
0003a0 44 47 ef bc 86 5c ca 3d 7d ae 2a 3d 98 07 51 b9
       -0.029208787 0.09880929 0.04167031 -0.00019934622
0003b0 2c e8 c3 3d 68 d9 90 3e 2f 92 da bb 58 e5 29 3d
       0.09565768 0.28290868 -0.0066702585 0.041478485
0003c0 8f 30 c1 bd 07 8a 55 3e d1 1d 62 3d 70 dc 24 3c
       -0.0943309 0.20853435 0.055204216 0.010062322
0003d0 4f 06 b3 bc 6d 07 9a bd df b5 14 bd 64 cf 44 3d
       -0.021853594 -0.075209476 -0.03630626 0.048049346
0003e0 a5 65 bb bd 98 93 46 3e 7a 6a a7 3c d1 00 f6 3b
       -0.091502465 0.1939224 0.020436514 0.0075074215
0003f0 7f 19 0a 3c ab 4a 90 be 7c b1 1b 3d 3b 39 27 3d
       0.00842893 -0.28181967 0.03801106 0.040826064

fc1.bias f4 [256]
000000 b8 76 5e 3d 93 93 01 be 43 eb 46 3e e0 57 a1 bd
       0.054312438 -0.12653951 0.19425683 -0.07878089
000010 cb 0d 2e 3e b4 53 16 3e 3f f2 88 3d 3f 6e 04 be
       0.16997449 0.14680368 0.0668683 -0.1293268
000020 3a 33 f7 bc 67 c0 f5 3d ed fd 63 bd ab bc c6 3c
       -0.030175794 0.119995885 -0.055662084 0.024259886
000030 85 fc 82 bd 98 a2 31 be e5 e8 61 bb 17 b7 fc 3c
       -0.063958205 -0.17347181 -0.0034471091 0.030849023
000040 c7 81 e7 3d 67 b4 09 be 79 d3 1d be 45 16 b9 bd
       0.1130405 -0.13447724 -0.15412702 -0.09037451
000050 1f 9f 19 3d 2b 7b de bd 32 26 04 be ac 12 82 bd
       0.037505265 -0.10863336 -0.12905195 -0.06351218
000060 27 e8 cc 3d a6 6d 67 3c fa 7e 70 3e 62 3c fe 3d
       0.10005217 0.014125263 0.23485938 0.12413861
000070 be 8b 20 be b5 2c 38 3d 79 82 40 be e5 0d 2b be
       -0.15678307 0.04496451 -0.18799771 -0.16704519
000080 b7 6e 24 bd 6c aa 6e 3e 7c ce bc bc 96 af 12 be
       -0.04014465 0.23307198 -0.023047678 -0.14324793
000090 93 cf 73 be d2 79 4c 3e 27 96 1f 3e c0 a3 b4 bd
       -0.23809652 0.19968346 0.15584622 -0.08820295
0000a0 40 6c 4f 3e 3c d0 f1 3c f9 e4 05 be 93 c8 d1 3d
       0.20256138 0.02951824 -0.13075627 0.102433346
0000b0 a0 6c 8d 3d e7 d9 01 be 0d 49 52 bd bc 24 17 3e
       0.06905484 -0.1268078 -0.051339198 0.14760107
0000c0 ad 91 76 3d fd 98 33 3e f7 dc d8 3d 63 70 1d 3e
       0.06019752 0.17538829 0.10589021 0.15374903
0000d0 49 1a 1c bd 44 52 b1 bd 4e 1f 38 3e ee f1 8c 3d
       -0.038111005 -0.08658269 0.17980692 0.06882082
0000e0 78 8f e4 bb 24 bc d2 bd 38 79 c9 bc 32 2e ad 3d
       -0.0069751106 -0.10289791 -0.024593934 0.08456077
0000f0 a4 d5 2f be ee 7d 8b 3d 84 61 05 be f3 0a 8b bd
       -0.17171341 0.068111286 -0.1302548 -0.06789198
000100 c5 5a cc 3d cc 3f b2 bd 1e 35 f2 bd 3f d2 31 3e
       0.099782504 -0.087035745 -0.118265375 0.17365359
000110 fe 32 a6 bd 84 c3 14 bd 86 d8 9d bd af 7c 9a bd
       -0.08115195 -0.03631927 -0.07707314 -0.07543313
000120 f6 b0 2b be c2 d4 6e bd 64 a4 7e be 24 35 99 3c
       -0.16766724 -0.05830837 -0.24867398 0.018702097
000130 73 a7 05 3e 51 4d 68 be 9c f9 2f be b7 75 fe 3d
       0.13052158 -0.22685744 -0.17185062 0.12424796
000140 ae 99 ca bd ac f5 09 3e d9 4e 90 bb 4c 93 46 3d
       -0.09892593 0.13472623 -0.0044039306 0.048480317
000150 b7 9c d5 3c 92 25 8c bd 4a 8c 08 bd 3a ba 0e 3e
       0.026075704 -0.068431035 -0.033336915 0.13938227
000160 1e 45 18 3e 52 e3 02 3d 1e 0f 1d 3e a1 7f 27 3e
       0.14870116 0.03195507 0.15337798 0.1635728
000170 8b b6 1e be ca 17 05 3e aa 21 40 3e 5f 77 04 3d
       -0.15499322 0.12997356 0.18762842 0.032340404
000180 a4 c2 0f be 94 c4 cd bd 32 7c 90 3c ce d2 49 bc
       -0.14039093 -0.1004726 0.017637346 -0.012318326
000190 12 fb 3e 3e ee 7b df 3d e6 19 02 be 1f 3a 5f bb
       0.18650463 0.109123096 -0.12705192 -0.0034061742
0001a0 b7 d5 45 3d bb c3 28 3e a6 40 8d 3c 4e ca 03 3e
       0.048299517 0.16480915 0.01724274 0.12870142
0001b0 cc 6e 8e 3c ac f8 8e bd 0c f0 e5 bd c5 0d ac bd
       0.017386816 -0.06981024 -0.11227426 -0.08401064
0001c0 69 8c 43 3c cf 4f de bd b9 56 2c be 6e 9a 29 3e
       0.011935332 -0.10855066 -0.16829957 0.16562817
0001d0 41 1d 79 bb 4c d2 02 3e 32 6c 9c bd bd bd 38 bd
       -0.0038011821 0.12775534 -0.07637824 -0.045102824
0001e0 72 af ce 3c 7d 83 da 3d da 32 e0 bd 7e 51 f1 3d
       0.025230143 0.10669611 -0.10947199 0.117831215
0001f0 05 37 49 bd f0 62 ad 3d f4 3f 38 3e 3f 74 1e bb
       -0.049124736 0.084661365 0.17993146 -0.0024178175
000200 ab 01 a9 3d 98 e7 37 bc 19 89 c5 3d fd cb 56 be
       0.08252271 -0.01122465 0.0964529 -0.20976253
000210 0e fb 66 3e e4 7c a3 bd 32 b0 59 3e 20 6f 72 3d
       0.22556707 -0.07982805 0.2125862 0.05918801
000220 23 38 30 be 70 bd 3d be 19 6a d6 3d ca 00 bb 3d
       -0.17208914 -0.18529296 0.10469455 0.0913101
000230 a5 ec 45 be 73 ab 16 3e 30 8b 4a bd 6f c4 64 3e
       -0.19328554 0.1471384 -0.049449146 0.22340558
000240 a6 2a cf 3d 6c 37 4f be 2a 88 01 3d 21 9c a5 bd
       0.101155564 -0.20235986 0.031623997 -0.0808642
000250 e0 41 69 3d e9 47 96 bd 3c be 34 3e 44 95 a9 bd
       0.05694759 -0.073379345 0.17650694 -0.08280423
000260 9b e8 03 3e 7a 22 1b be 58 d8 d5 3d 9b 5e 25 be
       0.128817 -0.1514987 0.10441655 -0.1614937
000270 54 d3 1c 3c 5d ee 88 bd 97 81 8f be 28 72 2a 3e
       0.009571869 -0.06686089 -0.28028557 0.1664511
000280 67 4d 0c 3e 38 2a 0f 3e 14 8a 2f bd 4a 04 4e bc
       0.13701402 0.13980949 -0.04285629 -0.012574265
000290 72 9b af bd 87 03 13 be f9 7c 0c 3e b5 3e fa 3d
       -0.08574571 -0.14356814 0.13719548 0.12218992
0002a0 a3 10 e3 bc 9e 61 49 bd 41 8a 78 3d 42 c5 a6 3d
       -0.027717894 -0.04916536 0.060678724 0.08143093
0002b0 7e 36 eb 3c 44 8a 12 be 7a dc d9 3d d3 85 46 3e
       0.028712507 -0.14310557 0.10637756 0.19386987
0002c0 37 9b ff bc 9e 53 70 bd a2 9b 90 bc a0 3c ac 3d
       -0.031201942 -0.058673494 -0.017652337 0.08410001
0002d0 da 64 4f 3e e1 d2 60 3d c0 ad b9 3d 0f db 85 bd
       0.20253316 0.05488861 0.09066343 -0.06535923
0002e0 86 76 69 3d ae 29 f9 3d 06 8e 19 3e f6 6c a7 bd
       0.0569978 0.12166153 0.14995584 -0.081750795
0002f0 50 de 88 3d 3a ef 85 3d 02 e3 31 3e a1 b1 6d 3c
       0.06683028 0.065397695 0.17371753 0.014507682
000300 9d fc f0 bd ab ab ce bd 61 e3 80 3d 22 08 82 3c
       -0.11766932 -0.10091337 0.06293369 0.015873019
000310 18 53 43 be d2 7e 14 bd e7 14 4c be 4b e2 37 be
       -0.19074667 -0.036253758 -0.19929849 -0.17957418
000320 1a bf 39 3e da 19 0e be 20 62 ae 3d 90 98 df bd
       0.18139306 -0.13877049 0.085148096 -0.10917771
000330 33 26 4e be c3 05 d1 3d 32 80 01 3e db 39 06 bd
       -0.2013176 0.10206177 0.12646559 -0.03277002
000340 1e 3a 02 3e 6b 13 4c bd f0 56 03 be 8f 15 21 3e
       0.12717482 -0.049823206 -0.12826133 0.1573088
000350 2b c9 85 3d 0f d6 eb bd cb b3 4e bc 9e 24 3b bc
       0.0653251 -0.11515438 -0.012616108 -0.011422304
000360 24 a7 d5 bc d5 a6 c3 3c de 55 c2 3d 6f 1b d1 3d
       -0.026080675 0.023883263 0.09489034 0.10210311
000370 bd a9 12 3e bc 1c 86 3c 9f c2 1c 3d 42 30 13 bc
       0.14322563 0.016371123 0.038271543 -0.0089836735
000380 10 42 36 bd 44 23 fc 3c b1 41 82 3d b1 16 98 bd
       -0.044496596 0.030778535 0.06360186 -0.07426203
000390 cb 77 61 be 6f e4 eb 3d b9 a9 da bd f0 5e 2a 3e
       -0.22018354 0.115181796 -0.10676903 0.16637778
0003a0 87 27 8a 3c d0 0c bf 3d 6b b6 77 3d ad a3 4d bd
       0.016864551 0.09328616 0.0604767 -0.05020492
0003b0 4f d6 cc bd cd d0 fc bd 6e 4c 70 3d 5f 22 15 3e
       -0.100018136 -0.12344513 0.05866664 0.14563893
0003c0 5d 3e 92 3d f8 97 dc bd 78 d6 79 bd a8 62 a4 bd
       0.07140801 -0.10771173 -0.06099555 -0.0802663
0003d0 23 48 a5 bd 81 f4 f2 3d 83 85 a9 3d dc 4a 96 3c
       -0.080703996 0.11863042 0.082774185 0.018346243
0003e0 2b ca 4e 3d 3e 73 59 bc 0b 93 3d bd bd 58 4c bc
       0.05048577 -0.013272105 -0.04628281 -0.012472329
0003f0 bb 95 09 3e f5 bb 5d bc ac 8e b6 3d 0d 86 f6 3c
       0.13436024 -0.013533582 0.08913931 0.030093217

fc2.weight f4 [256, 256]
000000 10 35 3f 3d 46 d1 1b 3d 5e 65 d1 3d 43 03 f7 3b
       0.046681464 0.038041376 0.102244124 0.0075382306
000010 be 88 fd 3b ea 49 49 bd 6f 45 eb 3c 2c 95 d5 3c
       0.007737248 -0.049142756 0.028719632 0.026072107
000020 04 67 09 bd 38 69 96 bd 8d 96 53 3e 6b ab 81 bc
       -0.03354551 -0.07344288 0.206629 -0.015828809
000030 10 9a 2b bc ec 46 9a bd cc 73 dd bc 65 3e 74 3e
       -0.010473743 -0.075330585 -0.027032755 0.23851927
000040 ab a3 9b bb 84 ed 34 bd 0e d5 33 bc 1e 04 b8 3d
       -0.0047497354 -0.044171825 -0.010976089 0.0898516
000050 eb 98 01 3d fe 42 81 bd d9 16 be bc 42 be 67 3a
       0.031639975 -0.06311606 -0.023204254 0.00088403013
000060 9b 3a 63 3c 5b 8d 70 bd 59 a8 63 bc c2 d3 43 3e
       0.013868953 -0.058728557 -0.013895118 0.19123748
000070 fb bc 4d bc 6e 3d f2 bc 04 05 37 bd db ef b2 bd
       -0.0125572635 -0.029570308 -0.044682518 -0.08737155
000080 e5 ac c7 3c 29 c9 d1 3c aa 72 d7 ba 54 31 cc 3d
       0.024374435 0.025608616 -0.0016437371 0.09970346
000090 f3 f1 1f be 40 bc b7 3d 76 f8 4b 3d ed 3f ed 3d
       -0.1561964 0.08971453 0.049797498 0.115844585
0000a0 86 1d d5 3d 0e de 36 be 0f 88 92 bd 1f 69 1b 3e
       0.10406022 -0.17858145 -0.07154857 0.1517682
0000b0 2c 0b a3 3b e5 07 a9 3b 99 7d a7 3d a4 13 02 3e
       0.004975697 0.005158412 0.08178253 0.12702805
0000c0 f0 41 3a 3d cb 1c ca 3c 7a 78 d3 3c eb 82 ce bd
       0.04547304 0.024671933 0.025814284 -0.10083564
0000d0 0f 7e 10 bd 3b 5f d1 bc 2e 19 b0 3c 12 b5 78 3d
       -0.03527647 -0.025558105 0.021496382 0.060719557
0000e0 f1 9c 09 3c 79 22 d6 3b fc 54 d1 3d 82 93 88 bd
       0.008399234 0.006534871 0.102212876 -0.0666876
0000f0 1f a8 41 3d c1 19 ca bb 19 0b 23 bd 77 1c d9 3c
       0.047279473 -0.006167621 -0.039805505 0.02650283
000100 f6 ee 18 3b f5 1f 67 bc f4 9d e2 3d 56 5c 00 bd
       0.0023335791 -0.01410674 0.110652834 -0.03133806
000110 9f cc 2b 3c 48 9a 4a 3d a1 50 27 bd 52 47 09 3d
       0.010485797 0.04946354 -0.040848378 0.033515282
000120 e9 e7 8e 3d 0f 7c b3 3c 9c 18 01 be 33 9f 12 3d
       0.06977827 0.021909742 -0.12607044 0.035796355
000130 b6 54 72 bc ea 51 47 3d dd 6e 1f 3d ef e4 0e 3d
       -0.0147907045 0.048662104 0.038924087 0.034886297
000140 aa f8 8d bd 6e c0 a8 3c 7b 09 5d bd 59 80 10 3d
       -0.069321945 0.02059957 -0.05396412 0.035278652
000150 dd 8f 98 3d ec 03 c2 bd 4f 29 20 3d 88 f0 0c 3d
       0.07449315 -0.09473404 0.039101895 0.034409076
000160 23 c2 89 bd 2e d4 57 3d e2 85 5e 3d 60 15 03 3c
       -0.06726482 0.052692585 0.0543269 0.008000702
000170 cd 1c 9d bc 89 8e 47 bd 17 04 c7 3d 5e b3 c0 3c
       -0.019178772 -0.048719916 0.09717577 0.023523029
000180 89 58 28 bd d8 a2 8a bc 13 95 77 bb 72 06 16 3e
       -0.04110006 -0.016923353 -0.0037778064 0.14650896
000190 92 f0 ed 3b da ec 33 3d 81 97 da 3d 23 ab a8 3c
       0.007261344 0.04392705 0.10673428 0.020589417
0001a0 20 37 37 bd d9 56 0e 3e 80 ae 45 3d b3 cf a8 bc
       -0.044730306 0.13900317 0.04826212 -0.020606851
0001b0 aa ca d3 3c 03 9a 9b bd 36 51 94 3d a5 20 94 bc
       0.025853474 -0.07597735 0.07242052 -0.018081972
0001c0 c7 c4 46 bd 5d 89 e8 bd 3e 75 84 bb de e0 1e bd
       -0.048527505 -0.11354325 -0.0040422967 -0.03878867
0001d0 e9 c3 ad 3d 87 fb 44 3a 2b 71 7e bd 32 82 30 bd
       0.084846325 0.0007514287 -0.062119644 -0.043092914
0001e0 c1 38 78 3d b0 df 50 3d b5 a0 99 bd c1 3a 81 3b
       0.060601 0.050994575 -0.075013556 0.0039437716
0001f0 76 f0 07 3d 92 8f 07 3d 6f 8c 94 3b 6a ec 00 3d
       0.033188306 0.033095904 0.0045333426 0.031475462
000200 02 d1 f6 bc a8 4e f4 3d e7 98 43 bc 99 62 86 3b
       -0.03012896 0.11929065 -0.01193831 0.004101109
000210 29 70 48 3d ed 62 89 bd 9a 4b 56 bd ff 05 d6 bd
       0.04893509 -0.06708322 -0.052318193 -0.104503624
000220 82 7a 68 bd f3 a8 9f 3c 41 af d0 bc 7a 7a 0d bd
       -0.056757458 0.019489741 -0.025474193 -0.03454063
000230 f3 7c 45 bd a3 6e 57 bd 4e 84 5e bd 94 a8 9d bc
       -0.048214864 -0.052595746 -0.054325394 -0.019245423
000240 85 d8 9b bc 3c 8e 1e bd ef 50 8b 3d bb ef 78 3d
       -0.019024143 -0.038709864 0.06802546 0.0607755
000250 d0 34 df bc 8c b6 ee 3c 3f 0d d7 3d 31 26 c9 3d
       -0.027246863 0.02913978 0.10500573 0.098217376
000260 55 e5 b1 bd 2e d6 c7 3c 57 d3 59 3c 8a 73 d7 3d
       -0.0868632 0.024394121 0.013295016 0.10520084
000270 83 dd 1b bd a0 63 00 3d c0 ce f9 3a b4 0e 8c 3c
       -0.038053047 0.03134501 0.0019058809 0.017096855
000280 2f 3e fc 3d f6 1b 2f 3d e9 66 19 bb 38 39 64 bd
       0.12316548 0.042751275 -0.0023407286 -0.05571863
000290 be 48 c2 3d a0 9b 9a bd 71 c5 f1 3d cd 71 d5 3c
       0.09486531 -0.07549214 0.11805237 0.026055241
0002a0 0d b2 0d bc 3f 0d cc bc 7a 4a b3 bb f7 bb 9f 3d
       -0.008648408 -0.02490866 -0.005471525 0.07799523
0002b0 b2 48 2d 3d d3 01 0e bd 45 45 29 3d 27 65 f0 3d
       0.042305656 -0.03466971 0.041325826 0.11738043
0002c0 5e 6d dc bb 48 71 21 3d ec b4 bc bc 22 e6 d1 3b
       -0.006726905 0.039414674 -0.023035489 0.006405608
0002d0 8d 25 a0 bd 05 e6 01 3d a2 9a 82 bd 08 27 e5 3c
       -0.07819662 0.031713504 -0.0637715 0.027972713
0002e0 b0 2f 09 be 94 70 02 bd df c2 5f bd 7d 8f ab 3b
       -0.13397098 -0.031845644 -0.054629203 0.005235611
0002f0 0c 31 25 3d 07 e1 e8 3b 9f de c0 3c 2a 6b 42 bd
       0.040329978 0.0071069035 0.023543654 -0.04746548
000300 eb 70 07 be fb 71 89 3d 3b 1c 48 bc db 03 96 3c
       -0.13226669 0.06711193 -0.012213762 0.018312385
000310 5f 6c 03 bd 6b c3 09 bc bb ac 54 bb c0 34 1b bd
       -0.032085773 -0.008408408 -0.0032451588 -0.037892103
000320 02 8d 90 3c f8 99 70 bd c7 47 32 bd 8b 88 50 3d
       0.017645363 -0.058740586 -0.043525483 0.050911468
000330 39 42 a1 bd 73 f6 06 3e 65 5f f5 bd 3a 35 a7 bc
       -0.07873959 0.1317995 -0.11981086 -0.020411123
000340 d5 7a 7b bd de 6b 4c bd 98 ac 27 bd 36 6c 75 bd
       -0.06139644 -0.049907558 -0.040936083 -0.05991765
000350 fe 38 98 3c c0 1e 54 3c 1d 0f 13 3d 3f f6 19 bc
       0.018581863 0.0129467845 0.035903085 -0.009397089
000360 ff 0d 1c be d2 5c 2c bd 23 6b a5 bc 9d be 47 be
       -0.15239714 -0.042080708 -0.020192688 -0.19506307
000370 9f 53 8b bd 4d d0 3c bd 92 8e 43 bd 3b ec 34 bd
       -0.06803059 -0.04609709 -0.047743388 -0.0441706
000380 b0 37 31 be bc 01 0a 39 1c a9 dd 3c 15 93 47 3d
       -0.173064 0.00013161352 0.027058177 0.048724253
000390 19 7c 22 3d 6a 2c 5a bd cd 25 3e 3c 20 44 55 3c
       0.03966913 -0.053265013 0.011605692 0.013016731
0003a0 14 80 56 bc 05 bc 93 bd 19 65 e8 3d 6b 93 61 bd
       -0.01309206 -0.07213596 0.11347408 -0.05507223
0003b0 a6 48 ef bd 7d 38 a1 bb 74 d8 5d 3c 7b ba a3 bc
       -0.116837785 -0.004920064 0.013540376 -0.019986382
0003c0 3e 6d ab 3d 78 8e 66 bd 7e b5 6d 3d 2b a8 9d b7
       0.08370446 -0.056288213 0.058034413 -1.8794168e-05
0003d0 50 10 ba 3c 3b ad ae bd 69 be 90 bc 79 30 3b bc
       0.022712857 -0.08529135 -0.01766892 -0.011425131
0003e0 bc 97 ad bd 85 84 b6 3d 66 65 86 3b 49 01 d4 bd
       -0.08476207 0.08911995 0.004101443 -0.103518076
0003f0 78 ac 00 bd 38 0c 3e 3d e8 53 d0 3d c1 33 02 3c
       -0.03141448 0.04639837 0.10172254 0.007946909

fc2.bias f4 [256]
000000 16 c1 d6 3d fe 53 1a 3c 29 2c 14 3d 6e 86 41 bc
       0.10486047 0.009419439 0.036174927 -0.011811836
000010 5a be 1e 3d 54 d4 b1 bc 2c df 24 3d b4 40 42 3c
       0.038755752 -0.021707691 0.040251896 0.011856247
000020 09 03 80 3d 32 75 a3 3b f8 8c a0 3b bf fd 71 3d
       0.06250579 0.004988336 0.0048996173 0.05907988
000030 3c 85 50 3d 98 c1 aa 3d d9 c9 04 bd 98 62 2c 3d
       0.050908312 0.08337706 -0.03241906 0.042086214
000040 69 d8 e2 bc 9e 44 40 3d ab b0 78 3d 03 6d 14 3d
       -0.027691083 0.04694044 0.06071536 0.036236774
000050 14 36 dc bc 03 7a 92 3d 88 d3 a6 3d cf 02 15 3d
       -0.026881255 0.07152178 0.08145815 0.03637963
000060 8d 3e 74 bc 45 d8 d9 bc 70 28 87 bd 51 a7 3c bd
       -0.014907491 -0.026592383 -0.0659951 -0.046058003
000070 eb ce 00 3c 16 0f d4 bc 95 9b b1 3c 5f 07 7a 3d
       0.007861833 -0.0258861 0.021680633 0.061042186
000080 b3 08 07 3d c9 27 9b 3c 76 6d 28 3c 7d a6 e4 3c
       0.03296728 0.01893987 0.010280004 0.027911419
000090 34 78 b6 3b b3 39 c8 bc 27 85 16 3d dd 32 65 3d
       0.0055685285 -0.024441576 0.036748078 0.05595671
0000a0 76 16 30 3d 34 56 67 bb ea b7 2e 3c 7c 0b da bc
       0.04299017 -0.0035299184 0.010663966 -0.026616804
0000b0 32 4c 6e 3d b5 a2 9c bb f2 32 88 bd 7a 82 8c 3c
       0.058178134 -0.0047801384 -0.06650342 0.01715206
0000c0 3a 86 0b 3a 46 df 18 bb 2f 1e 41 bd fa ac 08 bd
       0.00053224305 -0.002332644 -0.047147926 -0.03336809
0000d0 ed e8 d7 bc 0a c6 62 bd 4c 35 06 ba d7 86 a8 3d
       -0.026356185 -0.055364646 -0.0005119636 0.08228844
0000e0 ad eb d8 bc af 40 98 3d 3d e0 b7 bd df 3d c7 3d
       -0.026479566 0.074342124 -0.08978317 0.09728598
0000f0 7f 83 6a 3d ab 58 e1 3a e0 cd a6 bd 5d 33 46 3c
       0.05725431 0.0017192563 -0.08144736 0.012097207
000100 fb 83 51 bd 62 04 3e be aa 3e 8f bc b9 da 0a bd
       -0.051151257 -0.1855636 -0.017485935 -0.033899996
000110 32 85 00 3d 03 1d 20 3d 7a 7f 80 3d 7e d9 86 3d
       0.031377025 0.039090168 0.06274314 0.06584452
000120 24 b1 c3 3c a8 fb d7 3d 43 c2 f9 3c 68 18 91 bc
       0.023888178 0.105460465 0.030488139 -0.017711833
000130 89 3b 15 3d e0 78 12 3c 48 3a b1 bb 33 a9 93 3d
       0.03643373 0.008939952 -0.005408559 0.072100066
000140 63 c2 d3 bc 5f 8b b9 3b ad fe 49 3c 5f c3 34 3d
       -0.025849527 0.0056623663 0.012328786 0.044131633
000150 05 a8 c4 3d 63 44 16 bd bd c6 d2 ba 5d bf 90 3c
       0.0960236 -0.036686312 -0.0016080957 0.017669374
000160 68 fa 27 bd c1 2d 67 bc 51 4b ad bb 2f 9f de bc
       -0.04101029 -0.01411003 -0.0052885194 -0.027175514
000170 cc 52 18 3c b4 dd 8c bd 7f 35 8a 3d 60 0e d3 3c
       0.009297084 -0.06878224 0.06748485 0.02576369
000180 38 fc fb 3d f1 1f 8c bd 1f af ba 3d 0c ae b3 3c
       0.12303966 -0.0684203 0.09115433 0.021933578
000190 90 5b 63 bd b8 f2 82 bd b6 e2 3f 3d 77 eb 43 bd
       -0.055507243 -0.06393951 0.046847068 -0.04783198
0001a0 09 da 9f bd b4 9a 15 3d d0 ff da 3c c1 4f 34 3d
       -0.07805259 0.03652449 0.026733309 0.04402137
0001b0 4a a1 15 3d 81 b2 01 3d 13 1d a3 3a db 2b 56 3d
       0.03653077 0.031664375 0.0012444578 0.052287918
0001c0 01 fb 84 3d 83 b0 e9 3c 76 b8 a3 bd 88 4a 9e 3d
       0.06493188 0.02852655 -0.079941675 0.077290595
0001d0 fa 0f 20 bd ba 24 50 3d 54 c0 52 3d be 3a c9 3d
       -0.039077736 0.050816275 0.05145295 0.09825657
0001e0 c8 32 42 3c 92 a2 1c 3d 55 7f 0d bd 59 4f 96 3d
       0.0118529275 0.038240977 -0.03454526 0.07339353
0001f0 14 26 b7 3c a3 52 48 3d 70 17 82 bd 9e ac f7 bd
       0.022357024 0.048906934 -0.063521266 -0.12093471
000200 ec 2c 4f bd 34 c6 3c 3d c6 54 5d bc 96 87 59 3d
       -0.05057995 0.04608746 -0.013508981 0.05310782
000210 ac 4b 12 bc 08 df f7 3d aa 36 de 3d 05 1d 60 bd
       -0.008929174 0.12103087 0.1085027 -0.054715175
000220 79 f6 52 3c 12 ad a6 bc 88 46 b4 bc fe dc 9d 3d
       0.0128761465 -0.020346198 -0.022006288 0.077081665
000230 cd 5d 96 3d af 42 c2 3d e6 cd 76 bd 90 e6 b7 bc
       0.0734211 0.09485375 -0.060254954 -0.022448808
000240 53 19 4a 3d eb c0 90 bd 81 81 67 bd 1b d8 fb bb
       0.049340557 -0.07068046 -0.05651999 -0.007685674
000250 e7 05 f0 3c 88 74 f2 bc c1 2f c0 bc 26 f1 51 3d
       0.02929969 -0.029596582 -0.02346027 0.051255368
000260 a4 45 9e 3d f7 69 9b 3c 23 67 ed 3c e0 65 23 3d
       0.07728127 0.018971426 0.028979843 0.039892077
000270 a9 7d ff bb 06 1f 05 3d 49 7d cd 3d d2 41 0e bd
       -0.0077969623 0.03250029 0.10033662 -0.03473074
000280 6c cf f2 3c 89 00 94 3c 0b 36 b2 3c cb f8 e8 3d
       0.029639922 0.018066661 0.021754285 0.113755785
000290 64 64 9a 3d df 16 74 3d a9 89 54 3c fe 94 1c 3d
       0.07538679 0.059592124 0.012972274 0.038228028
0002a0 fc 44 65 3d 5c 9b 22 3c ff 9e c3 3c 92 71 61 3c
       0.05597399 0.009924736 0.023879526 0.013759987
0002b0 97 57 52 3d 1c 9a ce bc 43 c3 4e bc 0a 02 ee bc
       0.051353063 -0.02521997 -0.012619796 -0.029053707
0002c0 c5 2c 85 bd 23 91 86 3d 1c f7 c9 bc c8 a7 03 bd
       -0.0650268 0.065706514 -0.024653964 -0.03214243
0002d0 bf b9 86 3d 1b 0e 98 3d d3 e8 ae 3b 30 be f1 3c
       0.06578397 0.074245654 0.0053378134 0.029509634
0002e0 8d 00 a6 3d fb d2 76 bd ce 51 04 bd ed 4f 96 bc
       0.08105574 -0.0602598 -0.032304578 -0.018348658
0002f0 3f 49 a8 bc b0 de 89 bb 4a 2b 71 3d 1e f2 82 3c
       -0.020542739 -0.0042074546 0.058879174 0.015984591
000300 20 36 4b 3d 0f b1 8f 3c 92 57 81 bd b9 a8 8e bd
       0.049612164 0.017540483 -0.06315531 -0.06965775
000310 62 2a c5 3c 92 0b d1 bc 2e 46 90 3d b9 63 35 3d
       0.024068061 -0.025518212 0.07044636 0.044284556
000320 e8 26 a1 3d 3c 4e 35 3d f7 84 b2 3c 24 7b 25 bd
       0.07868749 0.044264063 0.021791918 -0.04040064
000330 b4 63 14 bd 43 b2 97 3d e9 81 bd 3c 01 3a 8a 3d
       -0.036227897 0.074070476 0.023133235 0.067493446
000340 b9 ce 5b bb 8b 1b a4 3c b1 15 91 bd 48 bc 33 bd
       -0.0033539964 0.020032665 -0.070842154 -0.04388073
000350 80 5a cb 3c 19 09 8a bc f3 cc 27 3d 82 65 25 bd
       0.024823427 -0.016850041 0.04096694 -0.04038001
000360 00 52 1c bb a0 8f af bd cd 0c 58 bd c8 6e 60 3d
       -0.0023852587 -0.08572316 -0.052746583 0.05479315
000370 34 d7 92 bc 3b 90 23 3d d3 0d cf 3c fa 07 b7 bc
       -0.017924882 0.03993247 0.025275147 -0.02234267
000380 f3 ec 37 3d cf ae 7e 3d cf da 97 3d d5 34 88 3d
       0.044903707 0.06217843 0.07414781 0.06650702
000390 22 0e 68 bd ce 25 62 3c 20 53 59 bd 1c f0 97 39
       -0.056654103 0.013802959 -0.05305779 0.0002897986
0003a0 2e 5b 13 bb 04 a7 37 bd e6 ee 62 bd 63 64 33 3d
       -0.0022484767 -0.044837013 -0.055403613 0.043796908
0003b0 91 1a bf bb e0 4a c2 bb 31 68 db 3d 33 b0 15 3c
       -0.0058320244 -0.005929336 0.10713232 0.009136247
0003c0 c8 49 23 bc 64 ee 17 3d e7 4d 62 3c 3e 18 2d 3d
       -0.009966321 0.03709258 0.013812519 0.042259447
0003d0 c2 19 5f 3d da 1e 91 3d e3 5e 81 3d 24 a6 7e bd
       0.054467924 0.070859626 0.06316926 -0.062170163
0003e0 ac 6c d9 bc b9 e2 72 bd 02 68 a6 bd ad 46 0a bd
       -0.026541077 -0.05929825 -0.08125307 -0.033758808
0003f0 2e 7c d1 3c f3 41 89 3d a1 69 19 3d 66 27 65 bc
       0.025571909 0.06702032 0.03745425 -0.013986444

fc3.weight f4 [2, 256]
000000 d5 e3 70 3d 94 62 6a 3e 63 a0 9a 3c 42 71 d0 bd
       0.058811028 0.22889167 0.018875306 -0.10177852
000010 75 32 f3 bc 1a 80 ee 3a 3d 12 6b 3c 9f f2 2d 3a
       -0.029687146 0.0018196136 0.01434761 0.00066355796
000020 58 f1 3e 3d 0e 3c 85 be 5b 66 13 3d c7 47 64 3c
       0.046616882 -0.2602238 0.035986286 0.013933129
000030 b7 5d 57 3b 23 a4 06 3c 29 e1 8d be 17 91 ad 3c
       0.0032862255 0.008217844 -0.27710846 0.021187348
000040 50 a8 8b bd 5a 02 95 3d 99 9a 1c be 80 7f 20 be
       -0.068192124 0.07275839 -0.1529335 -0.15673637
000050 2a d1 34 3d 10 9d 8c bd 57 7f 5f bd 4d ae 7b be
       0.044144787 -0.06865895 -0.0545648 -0.24578209
000060 a5 6c d1 bd 8f 22 f0 3b 98 12 70 b9 55 ac b4 be
       -0.102258004 0.0073283385 -0.0002289511 -0.3528773
000070 db 0a cb 3d d9 12 a0 be 35 17 25 3e 71 32 5c bd
       0.0991418 -0.3126438 0.16122134 -0.053759042
000080 68 30 03 be 86 01 57 be ba b8 e3 bd e6 6d db 3c
       -0.12811434 -0.20996675 -0.11119218 0.026785802
000090 68 df 70 3c 12 55 48 be 58 dd da bd be b4 92 3d
       0.014701702 -0.19563702 -0.10686749 0.0716338
0000a0 83 ba 80 be 21 f9 a4 bd eb 90 44 be 32 9a b5 bd
       -0.25142297 -0.0805533 -0.19195907 -0.08867301
0000b0 7f 2e 88 bd b9 4e 48 bb a5 e7 0d 3c 4a a0 80 bd
       -0.066494934 -0.00305645 0.008661185 -0.06280573
0000c0 b8 d7 17 be 28 32 48 be 3e 7f 90 be 36 35 ab bd
       -0.14828384 -0.19550383 -0.28222078 -0.083597586
0000d0 d7 42 1c be 37 8d 3d ba 74 c9 b3 3c 37 2e 8a 3c
       -0.15259872 -0.00072308205 0.021946646 0.01686774
0000e0 d5 e1 ea bd 9c 8c e2 3c 51 aa 4d 3a 5a e9 c8 bd
       -0.11468855 0.027654938 0.00078455085 -0.09810133
0000f0 12 94 8c 3c 5d 07 b2 3d 9b bf 01 3a 69 ae ca bd
       0.01716045 0.08692811 0.0004949511 -0.09896547
000100 29 49 7b be bb bc ca bd 91 59 bf 3d 3c e5 47 3c
       -0.24539627 -0.09899279 0.09343255 0.01220065
000110 ab d5 89 bd 83 a7 c3 bc e5 4d 86 3c 0b 4d 8f 3c
       -0.06730207 -0.023883587 0.016394565 0.017492792
000120 c0 40 08 bd 37 1f d2 3c fe 1a 70 3d 65 dd b0 bd
       -0.033264875 0.02564965 0.05861949 -0.08635978
000130 50 43 c9 3d b8 3b c1 3c 3b 19 08 3e 38 e5 90 be
       0.09827292 0.023588046 0.13290875 -0.2829988
000140 fb 9e 09 bb 8e 54 ce 3e 81 5d 89 3d db cf 0f 3d
       -0.00209993 0.40298885 0.067072876 0.035110336
000150 0f a5 2b 3c 8c df 13 bd 0c 03 03 be ff a1 b4 be
       0.010476365 -0.036101863 -0.12794131 -0.35279843
000160 ba 45 fd 3c ed 30 53 bc b9 e3 55 3d a7 19 30 bd
       0.030917037 -0.012890083 0.052219126 -0.042993214
000170 ad 54 42 bb fc 72 8b bd c9 33 b3 3c f3 e4 12 3c
       -0.0029652521 -0.06809041 0.021875279 0.008965719
000180 e7 0f dd 3d 12 14 51 3c a9 be 14 3c 42 3d 63 be
       0.10794049 0.012761133 0.00907866 -0.22191337
000190 7c 00 00 be a6 d5 f5 bc cb 02 fd bd 66 53 f3 ba
       -0.12500185 -0.030009102 -0.12354048 -0.0018564283
0001a0 84 94 22 3b ff e1 95 3d 8a 12 c3 bc fc cb 8f 3c
       0.002480776 0.07318496 -0.023812551 0.017553322
0001b0 53 ea eb bd 98 d2 af 3d 3c 28 50 be 07 7b 44 be
       -0.11519303 0.085850894 -0.20327848 -0.19187556
0001c0 2e 1a ad bd 37 f5 ef bc 2b 7e 11 bd c4 72 07 3d
       -0.08452259 -0.029291732 -0.035520714 0.033068433
0001d0 b4 ea 43 3c c9 65 48 3d b5 83 93 3d a0 6e 09 3e
       0.011957813 0.048925195 0.072028555 0.13421106
0001e0 a5 50 9d bd b7 29 24 3c 52 bd 8b be fe cb 1f 3c
       -0.07681397 0.010019711 -0.27292877 0.009753225
0001f0 40 40 b7 bd 16 92 12 3c e4 35 07 b8 31 6c ec bc
       -0.089478016 0.008945962 -3.2236698e-05 -0.028860183
000200 9b cc 94 be e5 1e 8d 3b 5d b4 12 3d 03 b5 36 be
       -0.29062352 0.0043066614 0.03581654 -0.17842488
000210 cd 96 53 be ef 1b 66 3e 31 3b 8a 3d 32 17 dc 3a
       -0.20662995 0.22471593 0.06749571 0.0016791581
000220 b6 f6 bb 3c f4 bb 27 3c 31 6d 82 3d 13 92 95 be
       0.02294479 0.010237683 0.06368483 -0.29213008
000230 fe f7 23 be 39 a4 95 bd 15 46 fa bd bd dc 05 be
       -0.1601257 -0.073067136 -0.12220398 -0.13072486
000240 c9 01 58 be 17 62 72 bc de 76 5a bd 39 9e 84 3c
       -0.21094431 -0.014793894 -0.053336017 0.016188728
000250 27 19 54 3d 3d bf 22 bd cb 8b 46 3c a7 bd ec bd
       0.0517818 -0.03973316 0.01211829 -0.11559611
000260 37 24 57 bd d1 dd 13 be 54 04 f5 3d 6b 17 60 3d
       -0.05252477 -0.14440085 0.11963716 0.054709833
000270 b7 cd 02 3c 5e 40 82 3e 72 34 40 be cd 1a d9 bd
       0.007983617 0.25439733 -0.18770006 -0.10600815
000280 bb 5e dc 3c 69 6a 8b bc 87 ca 35 be 03 d3 b8 3b
       0.02690064 -0.017018514 -0.1775304 0.005640389
000290 2a 6e 06 3e f5 79 0f 3c 97 0b ea ba 65 14 59 3c
       0.13127962 0.008757104 -0.0017856237 0.013249491
0002a0 85 4d be be f3 3e 31 3d 51 42 e0 3d 92 11 10 3b
       -0.37168518 0.043272924 0.10950149 0.002198313
0002b0 57 f7 57 3d 7d bd 24 3c ad 20 79 3d 0d 02 3c 3d
       0.052726116 0.010054943 0.060822178 0.045900393
0002c0 30 08 a3 bd 78 2a cd bd 86 07 ae 3c 65 a7 0e bd
       -0.07960546 -0.10017866 0.021243822 -0.03482761
0002d0 0e a8 85 be b6 87 e3 3d 39 a6 d2 3a fa 64 fb 3b
       -0.26104778 0.11109869 0.0016071267 0.0076719495
0002e0 9a 70 1a 3d ff d3 b4 3b 7f 95 a4 be ae 9d 1e bd
       0.03770504 0.005518436 -0.32145306 -0.038724594
0002f0 f0 a9 8f bd a6 77 bb bd bb 42 06 be b4 b1 34 bd
       -0.07014835 -0.091536805 -0.13111393 -0.044114783
000300 d9 e7 92 39 44 e0 73 be fd 28 92 3c c8 ae 71 bc
       0.0002802003 -0.2381602 0.01784181 -0.014751144
000310 99 0a 94 3d 74 12 dc bd b3 e9 35 bd aa 51 1d be
       0.07228584 -0.10745707 -0.044412326 -0.15363184
000320 16 7e f3 3d 14 b2 8a bc 64 cc 80 be 87 99 51 be
       0.11889283 -0.016930617 -0.25155938 -0.20468722
000330 4e 78 de bd b8 61 fa 3d 43 24 74 bb 32 7a a7 bd
       -0.1086279 0.122256696 -0.003725306 -0.08177604
000340 f8 13 da be 03 1a 74 3c 03 6f 4c 3a a4 c6 31 be
       -0.4259336 0.01489878 0.00077985245 -0.17360932
000350 7a 58 f3 3a 03 bd cc bd 10 01 9d bd b3 2b 3f be
       0.0018565797 -0.099969886 -0.07666218 -0.18669014
000360 6d 09 ae 3c 07 c3 f7 3b 45 df 99 3c 00 d0 83 bd
       0.021244729 0.007561091 0.018783221 -0.06436157
000370 3d 00 b2 3c 4d 14 5b bd 79 b5 be 3c dc 38 3f be
       0.02172863 -0.053486157 0.023279892 -0.18674034
000380 fc e6 03 be 0c 92 cf 3b c5 08 3e 3d 2c b8 67 bd
       -0.12881082 0.006334549 0.046395082 -0.056572124
000390 b9 eb 21 bd 01 90 c8 3b fe 56 a3 b7 bf c8 4e be
       -0.039531443 0.006120682 -1.9471623e-05 -0.20193766
0003a0 66 57 44 3c fd 09 64 bd 16 a2 b6 bd 1b e1 9a 3c
       0.011983728 -0.055673588 -0.08917634 0.018906167
0003b0 8b a2 83 be 72 e2 12 3c eb f5 47 3d f8 cc eb be
       -0.25709948 0.008965122 0.04881851 -0.46054816
0003c0 d5 12 23 bd 7f 8a 46 3c 5a 7c e6 3b 75 90 34 be
       -0.03981288 0.012117981 0.007033867 -0.17633231
0003d0 7c a8 9d bc d0 55 9b 3d b9 74 82 3c 6d 1d 03 3c
       -0.019245379 0.07584727 0.015924798 0.008002621
0003e0 0a 00 53 bb 8b fa fe b9 94 65 2c bc f9 2e 8b 3c
       -0.0032196068 -0.00048633324 -0.010522265 0.016990172
0003f0 b3 bd b8 bc 41 1f 04 3c 2e 4d fa 3c 0a 47 74 3a
       -0.022551393 0.008064092 0.03055438 0.0009318447

fc3.bias f4 [2]
000000 bd d1 1b 3c 58 52 8f bd
       0.009510455 -0.06998128

bn1.weight f4 [256]
000000 fe 9f b9 3e c1 9e 72 3f 30 d8 d0 3e 1c cc 24 3e
       0.36254877 0.9477349 0.40789938 0.16093487
000010 b6 98 82 3e cf da 36 3f cd 18 14 3f d6 2e 92 3e
       0.25507134 0.71427625 0.57850343 0.28551358
000020 5c 00 07 3f 98 26 cc 3d 42 d8 03 3f 8e bf 60 3f
       0.52734923 0.09968299 0.5150186 0.8779229
000030 00 5d e6 3e 4b 6e 3d 3f 00 71 19 3d d8 0b 3a 3f
       0.44992828 0.7399642 0.03746128 0.7267432
000040 f0 10 ec 3e 50 96 58 3d f8 99 4e 3e e2 9a 7d 3f
       0.46106672 0.052877724 0.20175922 0.9906446
000050 80 7f d2 3e 34 54 25 3e d0 27 d8 3e 02 33 cb 3e
       0.411129 0.16145402 0.42217875 0.39687353
000060 1c 06 b9 3e 30 53 ec 3e 5a 3f b5 3e 76 37 ef 3e
       0.36137474 0.46157217 0.35399896 0.46722
000070 18 82 93 3d 43 d7 4b 3f 80 b0 c0 3c 10 65 14 3f
       0.07202548 0.7962534 0.023521662 0.5796671
000080 8a c5 37 3f 37 cd 3d 3f ab ea 33 3f 1e 83 15 3f
       0.71785796 0.7414126 0.7027995 0.58403194
000090 96 3d 64 3f a0 22 2b 3d 8d 1e 38 3f 00 44 f0 3a
       0.8915647 0.041781068 0.71921617 0.0018330812
0000a0 d8 ec 3b 3e c0 57 90 3c 9e 0c 09 3f f0 fc 64 3e
       0.18352067 0.017619967 0.5353488 0.22362113
0000b0 28 b8 9f 3d 22 72 e3 3e a1 c3 07 3f c3 3a 31 3f
       0.07798797 0.44423014 0.5303288 0.6923029
0000c0 18 2e 54 3e d8 3b d9 3e 40 a0 5b 3c 30 b3 3f 3d
       0.20720708 0.4242847 0.013404906 0.046801746
0000d0 c3 99 41 3f 98 e1 88 3e 9b 7b 33 3f 45 98 24 3f
       0.75625247 0.26734614 0.7011048 0.64294845
0000e0 a2 39 4c 3f e2 d7 18 3f ba f0 dc 3e f2 9e 4c 3f
       0.7977544 0.5970441 0.4315241 0.7993003
0000f0 4c b8 d0 3e b0 f9 60 3d 84 e9 53 3e 25 53 20 3f
       0.40765607 0.05492562 0.20694548 0.6262687
000100 01 91 3f 3f 44 ef 0d 3e f6 e7 f7 3e d1 da 77 3f
       0.74830633 0.13860804 0.4841916 0.9681826
000110 55 7a 5e 3f 67 16 0c 3f f8 09 0d 3f 40 a3 b5 3c
       0.86905414 0.54721683 0.55093336 0.02217257
000120 10 34 27 3f a6 07 95 3e 07 51 66 3f 42 72 11 3f
       0.65313816 0.29107398 0.8996739 0.5681497
000130 a2 8b b9 3e 6b 48 27 3f f8 31 f3 3e ae 11 69 3f
       0.36239344 0.65344876 0.4749906 0.910426
000140 91 ab 41 3f 44 c9 54 3f 5d fb 50 3f 6c d4 c4 3e
       0.75652415 0.83119607 0.8163355 0.38443315
000150 d0 a0 46 3e d4 44 53 3f 3b 8d 54 3f 19 8f 26 3f
       0.19397283 0.825269 0.83028 0.650621
000160 4b ff 60 3f 4c a4 26 3e 10 2c 38 3e 80 cd 9d 3e
       0.87889546 0.16273612 0.17985559 0.30820847
000170 00 3a bf 3d ae 2b 14 3f e2 57 eb 3e c6 d9 a5 3e
       0.093372345 0.5787915 0.45965487 0.3239271
000180 30 e0 79 3e 36 16 00 3f 9e 41 54 3f 66 d6 6e 3f
       0.24401927 0.5003389 0.82912624 0.93295896
000190 0f af 1e 3f 54 5b 33 3e e0 48 c6 3c 58 0c 8d 3d
       0.6198587 0.17515308 0.024204671 0.0688712
0001a0 20 00 d6 3d ec 35 6b 3f 2a a2 ca 3e ec 4d 55 3f
       0.104492426 0.91879153 0.39576846 0.83322024
0001b0 18 8b ee 3e 74 a2 54 3f 6b 9d 0f 3f 52 17 59 3f
       0.46590495 0.83060384 0.56099576 0.8480121
0001c0 7c 84 71 3f 8e 3c d7 3e 40 cb bd 3d cc 21 95 3e
       0.9434278 0.42038387 0.092672825 0.29127347
0001d0 10 6d 99 3e 73 ab 1f 3f 3c ae 22 3e 1a ab 8b 3e
       0.2996602 0.62370986 0.15886778 0.27278978
0001e0 80 ff c6 3c 83 14 05 3f 93 77 0c 3f 58 07 46 3e
       0.024291754 0.51984423 0.54869956 0.19338739
0001f0 90 32 66 3f b0 83 b3 3d ee 68 de 3e 47 64 14 3f
       0.899209 0.08765352 0.4343943 0.5796551
000200 9c 4d 50 3e ee 49 66 3f 30 f6 89 3d 7e b1 29 3f
       0.20342106 0.8995656 0.0673641 0.66286457
000210 98 a6 24 3e e6 2e 90 3e aa 43 d3 3e b6 2c c6 3e
       0.16079175 0.2816078 0.4126256 0.38705987
000220 d2 ea 4e 3f f0 c6 3e 3d 9e 7d 13 3f 70 31 70 3d
       0.8082706 0.04657644 0.5761355 0.058640897
000230 93 cf 37 3f d4 93 61 3e 60 55 79 3f 6d fb 6d 3f
       0.7180111 0.22029048 0.97395897 0.9296177
000240 bc 22 55 3f 56 89 b0 3e c8 d6 6c 3f f4 50 07 3f
       0.83256125 0.3447978 0.9251523 0.528579
000250 98 06 39 3f f0 5b 27 3f 10 f9 23 3d 43 34 63 3f
       0.72275686 0.6537466 0.040032446 0.8875162
000260 4f ca 0e 3f 92 41 f2 3e 24 48 0f 3e 26 5c d2 3e
       0.5577745 0.4731565 0.13992363 0.4108593
000270 af 52 32 3f bf 19 55 3f e0 76 1f 3f a8 69 9c 3e
       0.69657415 0.8324241 0.62290764 0.3054936
000280 e2 25 6e 3f ad 19 7a 3f a2 36 02 3f 5b 3a 19 3f
       0.93026555 0.9769543 0.50864613 0.5985467
000290 bf b8 49 3f 98 26 b3 3e 0c 41 17 3e fc 8a 76 3e
       0.78797525 0.34990382 0.14770907 0.24076456
0002a0 25 a4 2d 3f 6c 8f 51 3e 55 2b 69 3f 5c 13 7a 3f
       0.6782859 0.20464867 0.91081744 0.9768579
0002b0 79 a3 48 3f cd 38 26 3f 48 62 ac 3e 10 d6 e3 3d
       0.7837444 0.6493042 0.33668733 0.111248136
0002c0 70 a3 c2 3e 10 d1 ba 3e d2 93 1b 3f 81 c3 63 3f
       0.38015318 0.36487627 0.6077243 0.8897019
0002d0 c7 61 3f 3f d0 4f 37 3f 7c 44 60 3f 19 df 56 3f
       0.7475857 0.7160616 0.876045 0.8393417
0002e0 40 c5 3c 3c cc 72 c8 3e c3 ce 7f 3f 80 b2 68 3d
       0.011521637 0.39150083 0.9992487 0.056810856
0002f0 1e 6c 69 3f 11 ca 45 3f a5 26 58 3f d5 d9 25 3f
       0.911806 0.77261454 0.84433967 0.6478551
000300 ee b9 84 3e eb ba 3c 3f 60 05 62 3e 18 bd 63 3e
       0.25923103 0.73722714 0.22072363 0.22240102
000310 48 c1 b4 3d f2 19 cf 3e 54 55 ea 3e 00 16 55 3d
       0.08825928 0.40449482 0.45768225 0.052022934
000320 80 73 40 3c ed 5a 09 3f 24 64 7e 3e f0 44 f7 3e
       0.011746287 0.53654367 0.24842888 0.48294783
000330 18 d7 e1 3d a0 64 d2 3c 91 2a 3c 3f 97 4c 4a 3f
       0.11027354 0.025682747 0.7350245 0.79023117
000340 58 73 cd 3d c0 2d 9d 3c 82 d4 f7 3e 9b 8c 74 3f
       0.10031766 0.019186854 0.48404318 0.95527047
000350 d0 5c 6d 3f 6a 0a a9 3e 00 7b 60 3c f8 f4 83 3d
       0.92719746 0.33015758 0.0137012005 0.064432085
000360 aa 0a fc 3e 0a 79 1e 3f a2 4a 98 3e 6f 04 70 3f
       0.49226886 0.6190344 0.2974444 0.93756765
000370 6e f7 1e 3f 9e 29 2d 3f 8e 55 bf 3e f2 f9 97 3e
       0.620963 0.6764163 0.3736996 0.2968288
000380 74 34 30 3f 68 a2 b6 3e 86 b8 ec 3e c4 9f 42 3e
       0.6883004 0.3567078 0.4623453 0.19006258
000390 80 3a 1d 3c 08 25 51 3f 98 76 ad 3e c4 d0 fa 3e
       0.009596467 0.8169713 0.33879542 0.489874
0003a0 06 30 2a 3f 60 3d bb 3e 32 8f 90 3e 96 0d 44 3f
       0.6647953 0.36570263 0.2823425 0.7658323
0003b0 7a 20 a9 3e be 66 31 3f b1 44 0a 3f 2a b1 2c 3f
       0.3303259 0.692974 0.54011065 0.6745783
0003c0 e4 ec 50 3f e0 bf 6c 3e c8 0a de 3e c8 f7 f3 3d
       0.81611466 0.2312007 0.433676 0.11912495
0003d0 dc a5 16 3e 66 d1 86 3e 38 d3 9c 3e 16 bd 2b 3f
       0.14711708 0.26331633 0.30629897 0.670854
0003e0 a4 b3 40 3f 80 70 8f 3c 87 66 21 3f cc 90 d7 3e
       0.7527411 0.017509699 0.6304707 0.4210266
0003f0 00 12 d9 3c 50 3d 06 3d d6 fc 41 3f 43 aa 76 3f
       0.02649784 0.032773316 0.7577642 0.9635355

bn1.bias f4 [256]
000000 00 00 00 00 00 00 00 00 00 00 00 00 00 00 00 00
       0.0 0.0 0.0 0.0
000010 00 00 00 00 00 00 00 00 00 00 00 00 00 00 00 00
       0.0 0.0 0.0 0.0
000020 00 00 00 00 00 00 00 00 00 00 00 00 00 00 00 00
       0.0 0.0 0.0 0.0
000030 00 00 00 00 00 00 00 00 00 00 00 00 00 00 00 00
       0.0 0.0 0.0 0.0
000040 00 00 00 00 00 00 00 00 00 00 00 00 00 00 00 00
       0.0 0.0 0.0 0.0
000050 00 00 00 00 00 00 00 00 00 00 00 00 00 00 00 00
       0.0 0.0 0.0 0.0
000060 00 00 00 00 00 00 00 00 00 00 00 00 00 00 00 00
       0.0 0.0 0.0 0.0
000070 00 00 00 00 00 00 00 00 00 00 00 00 00 00 00 00
       0.0 0.0 0.0 0.0
000080 00 00 00 00 00 00 00 00 00 00 00 00 00 00 00 00
       0.0 0.0 0.0 0.0
000090 00 00 00 00 00 00 00 00 00 00 00 00 00 00 00 00
       0.0 0.0 0.0 0.0
0000a0 00 00 00 00 00 00 00 00 00 00 00 00 00 00 00 00
       0.0 0.0 0.0 0.0
0000b0 00 00 00 00 00 00 00 00 00 00 00 00 00 00 00 00
       0.0 0.0 0.0 0.0
0000c0 00 00 00 00 00 00 00 00 00 00 00 00 00 00 00 00
       0.0 0.0 0.0 0.0
0000d0 00 00 00 00 00 00 00 00 00 00 00 00 00 00 00 00
       0.0 0.0 0.0 0.0
0000e0 00 00 00 00 00 00 00 00 00 00 00 00 00 00 00 00
       0.0 0.0 0.0 0.0
0000f0 00 00 00 00 00 00 00 00 00 00 00 00 00 00 00 00
       0.0 0.0 0.0 0.0
000100 00 00 00 00 00 00 00 00 00 00 00 00 00 00 00 00
       0.0 0.0 0.0 0.0
000110 00 00 00 00 00 00 00 00 00 00 00 00 00 00 00 00
       0.0 0.0 0.0 0.0
000120 00 00 00 00 00 00 00 00 00 00 00 00 00 00 00 00
       0.0 0.0 0.0 0.0
000130 00 00 00 00 00 00 00 00 00 00 00 00 00 00 00 00
       0.0 0.0 0.0 0.0
000140 00 00 00 00 00 00 00 00 00 00 00 00 00 00 00 00
       0.0 0.0 0.0 0.0
000150 00 00 00 00 00 00 00 00 00 00 00 00 00 00 00 00
       0.0 0.0 0.0 0.0
000160 00 00 00 00 00 00 00 00 00 00 00 00 00 00 00 00
       0.0 0.0 0.0 0.0
000170 00 00 00 00 00 00 00 00 00 00 00 00 00 00 00 00
       0.0 0.0 0.0 0.0
000180 00 00 00 00 00 00 00 00 00 00 00 00 00 00 00 00
       0.0 0.0 0.0 0.0
000190 00 00 00 00 00 00 00 00 00 00 00 00 00 00 00 00
       0.0 0.0 0.0 0.0
0001a0 00 00 00 00 00 00 00 00 00 00 00 00 00 00 00 00
       0.0 0.0 0.0 0.0
0001b0 00 00 00 00 00 00 00 00 00 00 00 00 00 00 00 00
       0.0 0.0 0.0 0.0
0001c0 00 00 00 00 00 00 00 00 00 00 00 00 00 00 00 00
       0.0 0.0 0.0 0.0
0001d0 00 00 00 00 00 00 00 00 00 00 00 00 00 00 00 00
       0.0 0.0 0.0 0.0
0001e0 00 00 00 00 00 00 00 00 00 00 00 00 00 00 00 00
       0.0 0.0 0.0 0.0
0001f0 00 00 00 00 00 00 00 00 00 00 00 00 00 00 00 00
       0.0 0.0 0.0 0.0
000200 00 00 00 00 00 00 00 00 00 00 00 00 00 00 00 00
       0.0 0.0 0.0 0.0
000210 00 00 00 00 00 00 00 00 00 00 00 00 00 00 00 00
       0.0 0.0 0.0 0.0
000220 00 00 00 00 00 00 00 00 00 00 00 00 00 00 00 00
       0.0 0.0 0.0 0.0
000230 00 00 00 00 00 00 00 00 00 00 00 00 00 00 00 00
       0.0 0.0 0.0 0.0
000240 00 00 00 00 00 00 00 00 00 00 00 00 00 00 00 00
       0.0 0.0 0.0 0.0
000250 00 00 00 00 00 00 00 00 00 00 00 00 00 00 00 00
       0.0 0.0 0.0 0.0
000260 00 00 00 00 00 00 00 00 00 00 00 00 00 00 00 00
       0.0 0.0 0.0 0.0
000270 00 00 00 00 00 00 00 00 00 00 00 00 00 00 00 00
       0.0 0.0 0.0 0.0
000280 00 00 00 00 00 00 00 00 00 00 00 00 00 00 00 00
       0.0 0.0 0.0 0.0
000290 00 00 00 00 00 00 00 00 00 00 00 00 00 00 00 00
       0.0 0.0 0.0 0.0
0002a0 00 00 00 00 00 00 00 00 00 00 00 00 00 00 00 00
       0.0 0.0 0.0 0.0
0002b0 00 00 00 00 00 00 00 00 00 00 00 00 00 00 00 00
       0.0 0.0 0.0 0.0
0002c0 00 00 00 00 00 00 00 00 00 00 00 00 00 00 00 00
       0.0 0.0 0.0 0.0
0002d0 00 00 00 00 00 00 00 00 00 00 00 00 00 00 00 00
       0.0 0.0 0.0 0.0
0002e0 00 00 00 00 00 00 00 00 00 00 00 00 00 00 00 00
       0.0 0.0 0.0 0.0
0002f0 00 00 00 00 00 00 00 00 00 00 00 00 00 00 00 00
       0.0 0.0 0.0 0.0
000300 00 00 00 00 00 00 00 00 00 00 00 00 00 00 00 00
       0.0 0.0 0.0 0.0
000310 00 00 00 00 00 00 00 00 00 00 00 00 00 00 00 00
       0.0 0.0 0.0 0.0
000320 00 00 00 00 00 00 00 00 00 00 00 00 00 00 00 00
       0.0 0.0 0.0 0.0
000330 00 00 00 00 00 00 00 00 00 00 00 00 00 00 00 00
       0.0 0.0 0.0 0.0
000340 00 00 00 00 00 00 00 00 00 00 00 00 00 00 00 00
       0.0 0.0 0.0 0.0
000350 00 00 00 00 00 00 00 00 00 00 00 00 00 00 00 00
       0.0 0.0 0.0 0.0
000360 00 00 00 00 00 00 00 00 00 00 00 00 00 00 00 00
       0.0 0.0 0.0 0.0
000370 00 00 00 00 00 00 00 00 00 00 00 00 00 00 00 00
       0.0 0.0 0.0 0.0
000380 00 00 00 00 00 00 00 00 00 00 00 00 00 00 00 00
       0.0 0.0 0.0 0.0
000390 00 00 00 00 00 00 00 00 00 00 00 00 00 00 00 00
       0.0 0.0 0.0 0.0
0003a0 00 00 00 00 00 00 00 00 00 00 00 00 00 00 00 00
       0.0 0.0 0.0 0.0
0003b0 00 00 00 00 00 00 00 00 00 00 00 00 00 00 00 00
       0.0 0.0 0.0 0.0
0003c0 00 00 00 00 00 00 00 00 00 00 00 00 00 00 00 00
       0.0 0.0 0.0 0.0
0003d0 00 00 00 00 00 00 00 00 00 00 00 00 00 00 00 00
       0.0 0.0 0.0 0.0
0003e0 00 00 00 00 00 00 00 00 00 00 00 00 00 00 00 00
       0.0 0.0 0.0 0.0
0003f0 00 00 00 00 00 00 00 00 00 00 00 00 00 00 00 00
       0.0 0.0 0.0 0.0
